pre_trained_model/model_rho_singleoutputnn_10000.onnx (onnx, 1515 bytes, 5 tensors)

0.weight f4 [8, 16]
00000000: a6cf e33e 657a e43e 6acc 65be 96c3 553e
00000010: 8224 e3be 8a6f ea3e 17e2 94be 6db5 f43e
00000020: bc2c bcbe 4a55 9dbe 6cae 023f 6c9d 8aba
00000030: 1b95 65be 44e0 c13e 5c5f ee3e ad22 6a3e
00000040: a43b ef3e 01f1 8d3c 60e5 ec3d 7baf 8a3e
00000050: 5be3 e03e c5e6 00be f9ca 2cbe 3a29 62bd
00000060: 3ecc 29be 66c6 453d ee4a 953e bfe3 c6be
00000070: 4dc2 733e 0fc8 2ebe 6f09 f9be 4491 eabe
00000080: be6f 893e 41c1 d73c 395c 8e3e c9f9 6bbd
00000090: fdc5 dc3e a423 f4be d9a8 e63e 61f4 853e
000000a0: 2ab1 283d 48d8 933e 6eaf de3e f845 42bb
000000b0: 26e5 e63e d73e 213d 1d3e 6e3b e78a 1a3e
000000c0: 64f2 8cbd 537b 463d 2594 f83e 5f16 a63e
000000d0: 5afe 603e 0636 83be 152e e53d 9536 92be
000000e0: abed 52bd 560d 473d 5d9e 62bd 89f8 753e
000000f0: 7445 7e3e 3533 f13e 26ba e23e 0053 d2be
00000100: 565c bbbe 3f0a 393e d9e8 a23e 6947 ac3e
00000110: 3349 dcbe be70 e33e 5500 aabe 3924 423e
00000120: 039b b7be 0713 b13d d512 d3bd 48d1 193d
00000130: 62b7 9f3e 8752 023e f36b f0be 6262 fb3e
00000140: 6f66 04be b1fc b7be 64b2 8bbd 2629 ad39
00000150: aeeb 533e 90d2 8a3d 3d8b 45be 7c1f fabd
00000160: 3b89 b33e 8e9f f83e d530 efbe fbda edbe
00000170: b8bb be3e 4db1 2a3d c8f5 1f3e 8316 c73e
00000180: 71dd d33e ee79 92be c7ce bbbe 93a9 f03c
00000190: a2c0 b33e 0ec8 e83e 965d b73e 9344 363e
000001a0: 119f 773e b5a1 073e 69df 003e a50f f1be
000001b0: cd23 67be 1a06 9ebe 260e 8b3d 9a7e c43e
000001c0: 1025 a7be 208d 9e3e 8a50 42be 63ba 65bd
000001d0: 4707 71bd 00a0 383b 92c3 db3e 67ad fbbe
000001e0: 9b1e 0dbe 38d0 ad3d fe7e 11be f478 a83e
000001f0: a2e7 b63e 50dd f53d 61de 483e dc4d b0be
0.4449436 0.4462463 -0.22441259 0.20875391 -0.4436379 0.45788223 -0.29078743 0.47794667
-0.3675288 -0.30729133 0.51047397 -0.001057548 -0.2242016 0.37866414 0.46557128 0.2286479
0.4672519 0.017326834 0.11567187 0.27087006 0.43923458 -0.12588032 -0.16874303 -0.055215098
-0.16581818 0.04828491 0.2915873 -0.3884563 0.23804589 -0.17068504 -0.4864001 -0.45813954
0.26843065 0.026337268 0.27804735 -0.05761126 0.43119803 -0.47683442 0.45050696 0.2616301
0.04118458 0.28875947 0.43493217 -0.0029643755 0.450967 0.03936657 0.003635294 0.1509205
-0.0688217 0.048457455 0.48550525 0.32438943 0.21972027 -0.25627154 0.1119043 -0.28557268
-0.05149619 0.048596703 -0.05532681 0.2402059 0.24831182 0.4710938 0.44282645 -0.4107895
-0.36593884 0.18070315 0.31818274 0.33648232 -0.43024597 0.44421953 -0.33203378 0.1895913
-0.35860452 0.08646207 -0.10306326 0.0375531 0.31194597 0.12726794 -0.4695736 0.49098498
-0.129297 -0.35934976 -0.06821135 0.0003302779 0.20695373 0.06778443 -0.19291396 -0.122130364
0.35065636 0.4855923 -0.46716943 -0.4645613 0.37252593 0.041672993 0.15621102 0.38884363
0.41379884 -0.2860865 -0.36681196 0.029377734 0.35107905 0.4546513 0.35813588 0.17799596
0.24181773 0.1324528 0.12585224 -0.47082248 -0.2257225 -0.3086403 0.06789808 0.3837784
-0.32645464 0.30967045 -0.18976036 -0.056085955 -0.05884483 0.002817154 0.42922646 -0.49155733
-0.13781206 0.0848698 -0.142086 0.3290478 0.35723597 0.12005103 0.19616081 -0.34434402

0.bias f4 [8]
00000000: 8f17 c0be 2fe2 b73e a965 b93e 8b54 bebe
00000010: dc34 0b3d b6a8 8c3d 323c b73e 400d 46bc
-0.37517974 0.35914752 0.36210373 -0.37173876 0.033985958 0.068681166 0.35788113 -0.01208812

2.weight f4 [8, 8]
00000000: f9c4 90bd 73cd a53d 7b1f 78be 072e 203e
00000010: 911a fe3e 8f9d 0bbf c60a 02bf a8aa ebbe
00000020: d84f 07bf 1630 153f a9aa e03d 01c1 1ebf
00000030: ff66 92be ee40 eebe 4276 1d3f 077e 583d
00000040: 33f5 dbbe c45f 243e 2e82 b4be 6df5 d83e
00000050: 48df a2be 7ef1 bbbe e69c d1be 53cf d53e
00000060: e6bf 03be b34b 0e3f c683 4a3e 510e 1a3e
00000070: 0879 11bf c2b3 f8be e594 133f 49ca dd3e
00000080: e909 b73d b417 113e 01c5 9bbe 29fd de3e
00000090: bda7 1bbe 4c40 0ebf 572b 643e ed08 05bf
000000a0: db84 7b3e 71a6 9fbd 42d1 473e 8450 11be
000000b0: 07f7 89be 49b1 4dbe 6b29 cbbd 1091 a93e
000000c0: e4a3 07be 8f74 f0be bd6a 82bd 535d 03bf
000000d0: bc40 d23e 80ca e73e 6b37 74be 1a95 17bf
000000e0: 25d4 edbe 649f 943d aedb d93e 570c 01be
000000f0: d90b 9bbe 96ab 86be 61fe b7bd 8a6c 873d
-0.070688196 0.08095827 -0.24230759 0.15642558 0.49629644 -0.5453729 -0.5079769 -0.46028638
-0.52856207 0.582765 0.10970051 -0.6201325 -0.28594205 -0.46533912 0.6150857 0.052854564
-0.4296051 0.16052157 -0.3525557 0.42374745 -0.31810975 -0.3670768 -0.40940017 0.41759738
-0.12866172 0.5558426 0.1977683 0.15044524 -0.56825304 -0.48574644 0.5764907 0.43318394
0.08937437 0.14169198 -0.3042374 0.4355252 -0.15200706 -0.5556686 0.22282158 -0.51966745
0.24562399 -0.07795418 0.1951342 -0.1419087 -0.2694628 -0.2008716 -0.09920009 0.33118486
-0.13246113 -0.46963927 -0.06368015 -0.51314276 0.41065013 0.45271683 -0.23849265 -0.59211886
-0.46450916 0.07256964 0.42550415 -0.12602364 -0.30282477 -0.26302785 -0.08984066 0.06612499

2.bias f4 [8]
00000000: 0000 0000 a0c2 b53e 0000 0000 2f35 b33e
00000010: 7ca7 76be c640 b73e 0000 0000 0ad1 bb3e
0.0 0.3550005 0.0 0.35001513 -0.24087328 0.35791606 0.0 0.36682922

4.weight f4 [1, 8]
00000000: c8ca 13bf a8b1 283f 6197 3d3f c141 de3e
00000010: cc7b 04bf 4e10 3c3f e4f3 a8be 6623 373f
-0.57731295 0.6589608 0.7405911 0.4340954 -0.517514 0.7346238 -0.32998574 0.7153839
