pre_trained_model/model_rho_singleoutputnn_1000.onnx (onnx, 2891 bytes, 5 tensors)

0.weight f4 [16, 16]
-0.089848265 0.21828401 -0.24777813 -0.34631836 0.37945676 0.38556108 -0.08608802 0.15131111
-0.060282994 -0.40167522 -0.28614253 -0.1201147 -0.40894678 -0.3886602 -0.41377828 0.35879615
-0.30866763 -0.19202495 -0.21643855 -0.40173575 -0.14940329 0.21263334 -0.25441793 0.06967508
0.17141166 -0.32562855 0.2528284 0.34312063 0.3856781 0.29945198 -0.20938341 0.28888655
0.012895854 0.06255353 0.42760763 0.14293507 -0.09459398 0.080180146 0.20626731 0.39433238
-0.19709982 -0.25891715 0.39833406 -0.14136255 0.25316963 0.25445807 -0.40761843 0.00022336669
-0.23451863 -0.19771229 -0.43150392 0.29849726 0.17533734 -0.069250114 0.006243954 -0.21501352
-0.24661228 -0.36074564 -0.20070532 0.11212616 -0.13428703 -0.34662595 -0.25703043 0.42208993
-0.033087403 0.02457872 -0.16512196 0.097866364 -0.06823886 -0.10259381 -0.08470978 -0.06435244
0.17514248 0.20012978 -0.373279 0.37182856 0.054602824 0.39993715 -0.4302833 -0.28162488
0.22357021 0.07134388 0.39007607 0.19656198 -0.16099054 0.28269324 0.4053477 0.3923184
-0.13184054 0.011626118 -0.26430437 -0.42838022 -0.13996452 -0.037969604 -0.23233867 -0.35485914
-0.18235843 -0.3750582 0.40478158 0.37645602 0.000814833 0.21060643 0.19462776 -0.4048766
0.38462007 -0.12683184 0.14189653 -0.13696112 -0.2629783 -0.04774629 -0.06188946 -0.25675145
0.0005009637 0.044154383 0.17122938 0.30452302 -0.14761986 0.34779823 -0.20424032 0.02389551
0.3096422 0.37764624 -0.068137154 -0.0056634923 -0.079565935 0.22452626 -0.06716838 -0.39676842
0.3869451 0.31867743 -0.18356155 0.16732746 0.3024235 0.21432562 -0.39182985 0.29300013
-0.29426104 0.32732525 0.10636823 -0.34877288 0.21014796 0.3032854 0.15722762 0.20771398
0.19372079 -0.1749038 -0.29120535 0.05254999 0.34039122 0.113447346 0.38163468 -0.029083265
-0.19956887 -0.09264379 0.11101629 -0.21522832 -0.111472845 0.20743173 0.41599956 0.41233394
-0.40124404 -0.42188096 0.17940101 -0.28290492 -0.15770307 0.3727571 -0.24640377 -0.011094364
0.3257919 0.14616302 -0.38438252 0.34884942 0.3535263 -0.34641597 0.28858668 -0.10121633
-0.3270236 -0.23313923 0.053541735 -0.14578696 -0.029942846 0.3941055 0.38096082 0.11276166
-0.35086936 0.23726748 -0.36278406 0.2838889 -0.19519137 0.26968068 -0.12200829 0.3194333
-0.06322911 0.41426933 0.094046876 0.21329635 -0.108944625 -0.17872211 0.33638465 0.1337872
0.34980243 -0.21783762 0.3204057 0.28020442 0.18314418 0.011488082 -0.31665325 0.30447766
0.07587404 -0.16248176 0.0029638158 0.20521347 -0.30862746 0.27560773 -0.3094561 0.36057535
-0.09900865 0.27064398 -0.057183784 -0.09333839 -0.24589668 -0.110799804 -0.36456165 0.3430989
0.16131656 0.16535117 -0.33647025 -0.025268702 -0.28171954 -0.15892655 0.2591725 -0.27706978
-0.026354356 -0.067547664 -0.35233316 0.2623458 0.25837585 0.15523484 -0.10194113 -0.0014707841
-0.043902025 0.015605978 0.2285995 -0.24258296 0.3464747 -0.14950563 -0.36513898 -0.15201223
-0.41879672 -0.30688667 -0.3419723 0.07208668 0.18308365 0.12072132 -0.012976337 0.010931764
00000000: 5e02 b8bd d885 5f3e 8db9 7dbe a450 b1be
00000010: 2848 c23e 4368 c53e ea4e b0bd 4df1 1a3e
00000020: 4deb 76bd 60a8 cdbe 4681 92be b2fe f5bd
00000030: 7961 d1be 78fe c6be bfda d3be 21b4 b73e
00000040: af09 9ebe 30a2 44be 11a2 5dbe 4fb0 cdbe
00000050: 2dfd 18be 8ebc 593e 1143 82be cfb1 8e3d
00000060: 8a86 2f3e c9b8 a6be b972 813e 82ad af3e
00000070: 9a77 c53e c551 993e 9b68 56be f0e8 933e
00000080: 2249 533c 111c 803d 63ef da3e 925d 123e
00000090: 7dba c1bd 7d35 a43d bd37 533e efe5 c93e
000000a0: 89d4 49be ca90 84be 71f2 cb3e 58c1 10be
000000b0: 739f 813e 5448 823e 5db3 d0be 8a37 6a39
000000c0: a725 70be 1775 4abe 15ee dcbe a2d4 983e
000000d0: a28b 333e 01d3 8dbd 159a cc3b 812c 5cbe
000000e0: ee87 7cbe a7b3 b8be b285 4dbe 66a2 e53d
000000f0: 8a82 09be f578 b1be 7e99 83be 2c1c d83e
00000100: a886 07bd 5059 c93c bb15 29be 296e c83d
00000110: d1c0 8bbd b41c d2bd 527c adbd 36cb 83bd
00000120: 8d58 333e d2ee 4c3e 6d1e bfbe 5060 be3e
00000130: 36a7 5f3d 90c4 cc3e 184e dcbe 2331 90be
00000140: 97ef 643e bd1c 923d 0db8 c73e 8b47 493e
00000150: b4da 24be 2bbd 903e bc89 cf3e f5dd c83e
00000160: 3501 07be 797b 3e3c e752 87be a754 dbbe
00000170: dc52 0fbe 0486 1bbd 30ea 6dbe 19b0 b5be
00000180: 2bbc 3abe a107 c0be 883f cf3e d8be c03e
00000190: 849a 553a 36a9 573e 804c 473e fc4b cfbe
000001a0: ecec c43e 35e0 01be 534d 113e 893f 0cbe
000001b0: 17a5 86be 9d91 43bd cd7f 7dbd ed74 83be
000001c0: 1b53 033a 3adb 343d c156 2f3e 71ea 9b3e
000001d0: a929 17be 9c12 b23e 6024 51be 84c0 c33c
000001e0: 6c89 9e3e d95a c13e 7e8b 8bbd d194 b9bb
000001f0: 77f3 a2bd 36ea 653e 938f 89bd 3b25 cbbe
00000200: ab1d c63e b029 a33e 8ff7 3bbe e457 2b3e
00000210: 41d7 9a3e 2d78 5b3e ec9d c8be 1d04 963e
00000220: 62a9 96be 2d97 a73e 96d7 d93d 5c92 b2be
00000230: 0731 573e 3948 9b3e 4700 213e f9b2 543e
00000240: be5e 463e fb19 33be de18 95be a93e 573d
00000250: c247 ae3e 1557 e83d 9f65 c33e 0740 eebc
00000260: c85b 4cbe 07bc bdbd 825c e33d d064 5cbe
00000270: e04b e4bd fc68 543e e5fd d43e 6f1d d33e
00000280: dc6f cdbe c800 d8be e6b4 373e ead8 90be
00000290: ea7c 21be 05da be3e 4551 7cbe 23c5 35bc
000002a0: 32ce a63e c2ab 153e c9cd c4be 649c b23e
000002b0: 6601 b53e 6f5d b1be a2c1 933e 824a cfbd
000002c0: a36f a7be 0dbc 6ebe 944e 5b3d 2d49 15be
000002d0: b34a f5bc 32c8 c93e 4c0d c33e 96ef e63d
000002e0: 26a5 b3be 3ff6 723e d5be b9be e359 913e
000002f0: 3fe0 47be 9613 8a3e 7bdf f9bd c38c a33e
00000300: 437e 81bd 1c1b d43e a69b c03d 5c6a 5a3e
00000310: 5c1e dfbd ee02 37be 9c3a ac3e 83ff 083e
00000320: 4e19 b33e d310 5fbe 370c a43e f476 8f3e
00000330: 268a 3b3e 8238 3c3c 6020 a2be 7fe4 9b3e
00000340: d963 9b3d 9e61 26be 943c 423b 7b23 523e
00000350: 6b04 9ebe 751c 8d3e 0871 9ebe 559d b83e
00000360: 0cc5 cabd d991 8a3e 8b39 6abd 3328 bfbd
00000370: 57cc 7bbe 02eb e2bd d3a7 babe a9aa af3e
00000380: 2b30 253e d151 293e d445 acbe 4f00 cfbc
00000390: 8b3d 90be a4bd 22be 42b2 843e 17dc 8dbe
000003a0: 17e5 d7bc 6e56 8abd 0365 b4be 3052 863e
000003b0: d749 843e e2f5 1e3e 83c6 d0bd 53c7 c0ba
000003c0: 9cd2 33bd 37b0 7f3c fd15 6a3e ab67 78be
000003d0: 2265 b13e 0118 19be 7ff3 babe 18a9 1bbe
000003e0: 866c d6be 4020 9dbe fe16 afbe 2ea2 933d
000003f0: 487a 3b3e bd3c f73d b49a 54bc 241b 333c

0.bias f4 [16]
0.0005347051 -0.18344341 -0.16621219 0.0 -0.16331223 -0.0048698806 0.18476018 0.12722209
-0.0009182696 -0.0007646338 0.18059678 0.22726887 0.05186963 0.0 0.0 0.14245538
00000000: 742b 0c3a 97d8 3bbe 8733 2abe 0000 0000
00000010: 523b 27be 8593 9fbb c631 3d3e 8246 023e
00000020: 08b8 70ba b571 48ba 5dee 383e 2cb9 683e
00000030: 4075 543d 0000 0000 0000 0000 d3df 113e

2.weight f4 [16, 16]
-0.43133202 -0.10430295 0.14916196 -0.1493819 -0.20101033 0.37677088 0.32972693 -0.14110972
0.22054933 0.23079205 0.3757934 -0.28014123 0.13262461 0.18094195 0.17974165 0.3198604
-0.1741963 0.30394983 -0.11744053 -0.22061126 -0.299113 -0.13818191 -0.39029425 -0.18633959
-0.18253863 0.21961053 -0.08829575 -0.015927905 0.23577267 0.0022480134 -0.14095245 0.1198173
0.31075943 -0.17847553 -0.08617676 -0.2045308 -0.16224454 0.36439574 0.31234044 0.07388862
-0.1316021 0.23723552 -0.11323929 -0.3929085 0.19923162 0.25486875 -0.29306042 -0.055008803
-0.42701656 -0.3490437 -0.015019052 -0.34930342 0.045243606 0.18101184 -0.28246093 0.22519828
-0.073431216 -0.15999073 -0.2824245 0.06971712 -0.17423281 0.19070168 0.33398628 0.043342628
0.10938704 0.37610435 0.25671098 0.012074955 0.29579753 0.15448046 -0.40667623 -0.2273894
0.27928972 0.09383262 -0.20971556 -0.25763938 0.3557028 -0.05739671 0.35052848 0.05391464
-0.012222715 0.19303216 0.14284268 0.17425613 -0.18653184 0.24885887 0.07984063 0.0109258415
-0.1567164 -0.3545142 -0.06264024 0.123012125 0.33066157 0.12486029 0.060298223 0.39442337
-0.18597865 0.2507141 -0.031740732 0.27916393 0.19790941 0.3597426 0.2943666 -0.18938056
0.20094302 -0.24270476 0.18526296 0.24068636 -0.19712794 -0.34271425 -0.07628885 -0.13456848
-0.2511835 -0.40486237 -0.1557378 -0.3593747 -0.41993648 -0.20492752 0.31071907 0.43245634
0.06809031 -0.38286525 0.26734668 0.07809517 0.24362485 -0.38116023 0.24931861 0.37918237
0.15956806 0.25895748 0.30610362 -0.042411108 0.35461158 0.24838871 -0.18502381 0.16963167
0.3497291 0.1349305 -0.24781407 0.28951344 0.2158186 -0.3652811 -0.40429133 0.326417
0.017575748 0.30042782 0.41430223 0.40186596 0.04443292 0.033935566 -0.337287 0.029292526
-0.055000138 -0.26890802 0.10873229 -0.4392417 0.27699462 -0.10982167 0.13391599 -0.31372607
0.15924029 0.2301277 -0.18500794 0.4104602 -0.00041744395 -0.11101165 0.045014415 0.22311628
-0.015971683 0.04698002 0.2605267 -0.32148325 -0.11355683 0.12308025 -0.4194366 -0.39723665
0.18926914 0.19638513 0.39017197 0.18635963 -0.09054025 -0.26848933 -0.2741104 0.34747133
-0.23978972 0.22833176 0.25543085 -0.34893236 0.36520597 0.40573946 0.3304061 0.03351624
0.13589945 0.4193999 0.22839595 -0.40144673 -0.22386996 0.16187942 0.05585477 -0.005209083
0.40556923 -0.083553486 -0.14468667 -0.1589285 -0.32222462 -0.29059395 -0.31409058 -0.054982692
0.32025373 0.25077823 -0.060510166 -0.2353913 0.3230033 0.24891981 0.15796512 0.4039472
0.0023446612 -0.42744055 -0.3088017 -0.4183452 0.028460179 -0.25129455 -0.32787633 0.22541106
0.3051527 -0.40826762 0.31491995 0.07812546 -0.43625453 -0.39784434 0.27791417 0.29259855
0.30845162 -0.19756357 0.3149736 -0.12106301 0.006362588 0.33626723 -0.23445922 0.06656449
0.048999153 -0.31075463 0.3961233 0.29682696 -0.15819979 0.12897903 0.11357347 0.37698752
0.3477174 0.3421079 -0.015480931 -0.4076997 -0.048023872 0.3979319 0.18395326 0.16849157
00000000: 8dd7 dcbe c99c d5bd eabd 183e 92f7 18be
00000010: a7d5 4dbe 1de8 c03e f8d1 a83e 117f 10be
00000020: afd7 613e c054 6c3e fe67 c03e ac6e 8fbe
00000030: bfce 073e d948 393e 320e 383e bec4 a33e
00000040: 8460 32be 509f 9b3e a984 f0bd ebe7 61be
00000050: 5725 99be 8f7f 0dbe a6d4 c7be cecf 3ebe
00000060: 68eb 3abe 95e1 603e 67d4 b4bd 3d7b 82bc
00000070: 646e 713e 6853 133b d755 10be c662 f53d
00000080: dc1b 9f3e 4ac2 36be 717d b0bd 8670 51be
00000090: 6f23 26be 1492 ba3e 16eb 9f3e eb52 973d
000000a0: b3c2 06be deed 723e 00ea e7bd 4e2b c9be
000000b0: 6003 4c3e 287e 823e 040c 96be e950 61bd
000000c0: eaa1 dabe dbb5 b2be 7812 76bc e6d7 b2be
000000d0: 5c51 393d 2b5b 393e b89e 90be 619a 663e
000000e0: 1b63 96bd 9cd4 23be f299 90be d9c7 8e3d
000000f0: 166a 32be 4d47 433e 4000 ab3e 0a88 313d
00000100: 5006 e03d c090 c03e 9f6f 833e 08d6 453c
00000110: c672 973e 2030 1e3e de37 d0be c4d8 68be
00000120: 10ff 8e3e 512b c03d adbf 56be 4fe9 83be
00000130: ad1e b63e d018 6bbd 7878 b33e 99d5 5c3d
00000140: c841 48bc 39aa 453e 5a45 123e 3370 323e
00000150: 3402 3fbe dcd4 7e3e 7c83 a33d 4d02 333c
00000160: 447a 20be e382 b5be 8749 80bd c8ed fb3d
00000170: 794c a93e c0b6 ff3d 45fb 763d dcf1 c93e
00000180: 3071 3ebe 995d 803e 9202 02bd 93ee 8e3e
00000190: c4a8 4a3e 2f30 b83e 38b7 963e faec 41be
000001a0: 02c4 4d3e 9987 78be 93b5 3d3e 7c76 763e
000001b0: e8db 49be 3e78 afbe 543d 9cbd 52cc 09be
000001c0: 209b 80be 1f4a cfbe bb79 1fbe f6ff b7be
000001d0: ea01 d7be 85d8 51be 9216 9f3e eb6a dd3e
000001e0: ef72 8b3d ea06 c4be aae1 883e 5cf0 9f3d
000001f0: cb78 793e 6f27 c3be 614d 7f3e 3124 c23e
00000200: cf65 233e 1396 843e 9db9 9c3e 45b7 2dbd
00000210: a68f b53e 9c59 7e3e e276 3dbe edb3 2d3e
00000220: b10f b33e 392b 0a3e f9c2 7dbe 1b3b 943e
00000230: 8dff 5c3e 2006 bbbe 46ff cebe 2120 a73e
00000240: 04fb 8f3c add1 993e 6c1f d43e 60c1 cd3e
00000250: 4bff 353d 0500 0b3d e2b0 acbe e1f6 ef3c
00000260: d347 61bd 50ae 89be 09af de3d 4ae4 e0be
00000270: 3dd2 8d3e 2fea e0bd 4621 093e b4a0 a0be
00000280: e30f 233e 99a6 6b3e b972 3dbe d727 d23e
00000290: 61dc dab9 135a e3bd 0961 383d 9878 643e
000002a0: 0cd7 82bc 1f6e 403d c163 853e 7499 a4be
000002b0: 7c90 e8bd 8011 fc3d 65c0 d6be 9a62 cbbe
000002c0: c5cf 413e 2f19 493e 9fc4 c73e 0fd5 3e3e
000002d0: 2b6d b9bd 6f77 89be 3358 8cbe c3e7 b13e
000002e0: 708b 75be cdcf 693e d5c7 823e 43a7 b2be
000002f0: 47fc ba3e 15bd cf3e fd2a a93e 5348 093d
00000300: 3a29 0b3e 95bb d63e a1e0 693e 6d8a cdbe
00000310: 2b3e 65be b8c3 253e f9c7 643d f5b0 aabb
00000320: c5a6 cf3e 171e abbd be28 14be 27be 22be
00000330: a0fa a4be bbc8 94be 7bd0 a0be 8835 61bd
00000340: 4cf8 a33e 0166 803e 82d9 77bd 6b0a 71be
00000350: b060 a53e d6e4 7e3e 9cc1 213e 2bd2 ce3e
00000360: e3a8 193b 7dd9 dabe 421b 9ebe 5831 d6be
00000370: 5225 e93c aea9 80be 68df a7be 28d2 663e
00000380: fa3c 9c3e 7408 d1be 303d a13e 3e00 a03d
00000390: c15c dfbe 41b2 cbbe c44a 8e3e 7acf 953e
000003a0: 5fed 9d3e 1b4e 4abe 3844 a13e e2ef f7bd
000003b0: 427d d03b 382b ac3e 1416 70be f752 883d
000003c0: 56b3 483d 3b1b 9fbe acd0 ca3e b4f9 973e
000003d0: 20ff 21be 1413 043e 3599 e83d 8204 c13e
000003e0: 0408 b23e c428 af3e bba3 7dbc 04be d0be
000003f0: aeb4 44bd bbbd cb3e 3e5e 3c3e 0e89 2c3e

2.bias f4 [16]
-0.13265976 0.0008327596 -0.21211767 0.0 -0.20346573 0.13569498 -0.13015011 0.1358839
-0.13269936 -0.18195093 0.0 0.13587914 -0.0008388106 -0.1928741 0.13557617 -0.13319755
00000000: f6d7 07be 8d4d 5a3a 6035 59be 0000 0000
00000010: 5259 50be a0f3 0a3e 1246 05be 2625 0b3e
00000020: 57e2 07be 5851 3abe 0000 0000 e723 0b3e
00000030: a0e3 5bba ca80 45be 7bd4 0a3e f064 08be

4.weight f4 [1, 16]
-0.3293112 0.07581402 -0.27249438 -0.36703002 -0.578241 0.4549943 -0.4603875 0.5217102
-0.24677254 -0.523524 -0.014839027 0.372928 -0.55575943 -0.6240312 0.55454564 -0.15919314
00000000: 7a9b a8be 6244 9b3d 6284 8bbe 5ceb bbbe
00000010: 9a07 14bf 03f5 e83e e9b7 ebbe cd8e 053f
00000020: f1b1 7cbe ab05 06bf 641f 73bc 6bf0 be3e
00000030: 4046 0ebf 82c0 1fbf b4f6 0d3f 8703 23be
