pre_trained_model/model_phi_new.onnx (onnx, 275870 bytes, 12 tensors)

0.weight f4 [128, 3]
000000 69 91 2b 3e be db 11 be 48 28 6d 3d 96 73 6e 3d
       0.16754688 -0.14243981 0.057899743 0.0582157
000010 c4 50 ae 3d 2e a7 80 3e 30 2b 5a bd 33 28 d2 3d
       0.085114986 0.25127548 -0.053263843 0.10261574
000020 a7 3c 79 3e a3 1f 2c bd d4 25 fe bd df cc 42 3d
       0.24339543 -0.04202236 -0.12409559 0.04755866
000030 5c 51 3a bd 57 ad 2a 3e 69 92 86 3e 23 66 59 be
       -0.045487747 0.16667686 0.26283577 -0.21230368
000040 42 26 8b bd 55 36 40 3e 39 da d2 3c c4 24 84 3d
       -0.067944065 0.18770726 0.025738822 0.06452325
000050 a8 de 86 3e fa 9a 40 bd a2 fb 0b 3d 10 39 4f 3d
       0.26341748 -0.047022797 0.034175523 0.05059153
000060 9b cb dc 3d ce 2d 66 bd 3d 7d 33 3e 33 b0 3b 3e
       0.10781022 -0.056196027 0.17528243 0.18328933
000070 29 0a e7 39 b8 37 2d be 48 7b 81 bd 2a aa cb 3d
       0.00044067323 -0.16915786 -0.06322342 0.099445656
000080 af 30 5a 3e b4 aa a4 3b dd f5 ed bd 00 dc 2a 3e
       0.21307634 0.005025232 -0.1161916 0.16685486
000090 4e 55 cf 3a 9c df 8c ba 27 0b 27 3e 19 37 7a bd
       0.001581827 -0.0010747793 0.16312848 -0.0610877
0000a0 b3 95 48 3e 46 bc 81 be 7b d7 42 bc f1 bb 38 bc
       0.19588356 -0.25338954 -0.011892195 -0.0112752775
0000b0 51 be 80 be f2 23 69 3d f2 19 f2 3d e7 98 d2 3d
       -0.251452 0.056919046 0.11821355 0.1028307
0000c0 78 fb 62 bd 73 de b3 3c f0 e8 0e 3e b4 34 6d 3d
       -0.0554156 0.021956658 0.13956046 0.05791159
0000d0 e8 ac 35 be 30 af dd 3d c4 57 5e be 5e 9f 25 be
       -0.1774174 0.1082443 -0.21713167 -0.16174075
0000e0 06 bc 9f bd ac 25 19 3e 5b 23 0b 3e ed 68 59 be
       -0.077995345 0.14955777 0.13587706 -0.21231432
0000f0 33 58 0c 3c e6 df 54 3e 64 db 30 be 26 df e2 3c
       0.00856595 0.20788535 -0.17271191 0.027694296
000100 1d 71 3b 3e d5 28 8f 3e 0d 78 d5 3d 58 f6 2b be
       0.18304868 0.2796084 0.104232885 -0.16793191
000110 5f 6a 67 3e e6 28 af bc 3e c8 59 3e f9 38 df bc
       0.22599171 -0.021381807 0.21267793 -0.027248846
000120 0e 34 8d bd e4 b1 e3 3d a3 03 45 3d e8 e2 fb bd
       -0.06894694 0.11117914 0.04809917 -0.12299138
000130 9c ad b2 bc ee ea d1 3d 96 6b 4d bd ae ad 02 be
       -0.021811299 0.102498874 -0.05015143 -0.12761566
000140 39 0f 29 be a6 f4 7b bb 4f d6 29 bc 0c 12 93 3e
       -0.16509713 -0.0038445382 -0.010366037 0.28724706
000150 a8 82 19 be 50 af d3 3c 06 32 68 be 8a 6e cc bc
       -0.14991248 0.025840431 -0.22675332 -0.024955053
000160 49 05 88 bd 67 5b 48 3d 6c 6b 19 be e7 9b 02 3e
       -0.06641633 0.048915293 -0.14982384 0.12754785
000170 bf eb 3e bd 91 ef 01 3e 95 bd 1c bd 7e d2 5e be
       -0.046611544 0.12689044 -0.038266737 -0.21759984
000180 8f 73 3c 3e 67 a0 59 be 0a 7d 4b be 62 91 38 be
       0.18403457 -0.21252595 -0.19871917 -0.18024209
000190 e8 0c d7 3d ee 14 6d bc 12 60 e5 3d 75 06 23 3e
       0.105005085 -0.014470322 0.111999646 0.15920432
0001a0 36 30 65 3e 35 05 c4 bb e9 ee 6f 3d 81 f5 50 3e
       0.22381672 -0.005982066 0.05857745 0.20406152
0001b0 e3 09 7f bd b1 e6 2d 3e 42 c9 89 be 6a 6d d6 bd
       -0.062265288 0.16982533 -0.2691136 -0.10470088
0001c0 3f 22 b0 3c c8 11 1c be e6 b7 e1 bc 43 9c f1 3d
       0.021500705 -0.15241158 -0.02755351 0.11797383
0001d0 a6 be c3 3d 57 cf 65 3d 1d c0 c2 bb 27 b7 11 be
       0.09557848 0.056105938 -0.005943312 -0.14230023
0001e0 de 21 55 3e 27 e4 ed 3d e9 ed f6 bd a5 fe 29 be
       0.208137 0.11615782 -0.120570965 -0.16601045
0001f0 99 8f f2 bc 30 56 43 be 0b f8 9d bd 9c 9a 12 be
       -0.029609488 -0.19075847 -0.07713326 -0.14316791
000200 b0 9d 77 3e 15 38 03 be 14 78 1a 3d 3e 79 59 be
       0.24181247 -0.12814362 0.03771217 -0.21237656
000210 4c 66 1f 3e 96 8a e2 bd 06 45 0f bd 23 e0 51 be
       0.15566367 -0.110615894 -0.034977935 -0.20495658
000220 0d 21 ee 3d 99 0b 2c 3e d9 e4 53 3d 75 bc 28 3e
       0.11627398 0.16801299 0.051731918 0.1647814
000230 aa bf 7b be 3b b4 99 3d ce 17 37 3d 4e 0e 4d be
       -0.24584833 0.07505079 0.044700436 -0.20024988
000240 24 46 f3 3d 95 bd 1e be 6e 7a 90 3e 0d 80 0f 3d
       0.11878613 -0.15502007 0.28218406 0.035034228
000250 ee ea 18 3e 40 e7 48 be 7a ff 5a 3e 8f 03 2a be
       0.14933369 -0.19619465 0.21386519 -0.1660292
000260 a6 ac 86 bd 2a 90 01 be 9f a4 49 3e ff c7 f9 bc
       -0.06575899 -0.1265265 0.19691704 -0.030490873
000270 f6 94 1c 3e a3 23 20 3b eb b4 49 3e b3 5f 03 3d
       0.15291199 0.0024435304 0.19697921 0.032073688
000280 99 b2 3a bd 2d 92 85 3e 00 07 24 3e 7b 5f 4a bd
       -0.04558048 0.26088086 0.16018295 -0.049407464
000290 bf bd be bd ac 78 cd 3d e5 8d df bd 74 73 06 3e
       -0.09313535 0.10032782 -0.10915736 0.1312998
0002a0 a0 fe e8 bc fd d6 92 3d b1 e0 4e be a0 5e 17 be
       -0.028441727 0.07169912 -0.202029 -0.1478219
0002b0 07 b8 17 3e 0b 5a 8b be d6 76 b2 3d 6f 71 a9 bc
       0.14816295 -0.27217135 0.087140724 -0.020683972
0002c0 ff fe a8 3d d7 22 4f be d8 aa 49 bd 14 ca 2c 3e
       0.08251762 -0.20228134 -0.049235195 0.16873962
0002d0 77 83 57 bd 99 03 16 bd 37 b1 35 be 23 33 7e 3d
       -0.05261561 -0.036624525 -0.17743383 0.062060487
0002e0 02 1f b6 3d 9b 54 93 3d e2 89 ce 3b 95 8d 31 be
       0.08892633 0.071938716 0.006303058 -0.17339166
0002f0 be 31 27 3e ef aa da bd 6a 24 c5 bd 70 88 a3 3d
       0.16327569 -0.10677134 -0.09626086 0.07985008
000300 19 2d 0b bc 49 6a 3d be 73 18 84 be 8b 93 09 be
       -0.008494639 -0.18497576 -0.25799903 -0.1343519
000310 b3 e6 40 be 06 5b 58 be 11 6c e6 3d cb c6 9b bd
       -0.18838005 -0.21128473 0.11251081 -0.07606276
000320 3c 16 64 3e 5e 3f 12 be e4 32 bf bd 06 a7 85 3c
       0.22274107 -0.14281985 -0.093358785 0.016314995
000330 56 7a 2e 3e 25 34 aa 3d 58 e7 cc 3d 2d 12 eb bd
       0.17038855 0.08310727 0.10005063 -0.11478076
000340 65 e3 cf 3d 9f ab 5e be 33 dc 60 3d 25 f9 ed 3d
       0.10150794 -0.21745156 0.0548975 0.11619786
000350 71 c3 df 3d 0d 5f b8 3d 48 ed 3b bd 12 07 6a 3e
       0.10925949 0.090025045 -0.045880586 0.2285426
000360 95 ef 14 3d 87 13 06 3e 88 68 22 3d 79 2b 06 3d
       0.036361296 0.13093387 0.03965047 0.032756303
000370 ce d4 f7 bd d9 87 57 3e 4f 86 51 be be 19 6d bd
       -0.12101136 0.21047916 -0.20461391 -0.057885878
000380 47 e1 d5 3d 1e 2f 89 3d 44 55 b3 bd 72 48 21 be
       0.10443359 0.0669844 -0.087564975 -0.15750292
000390 f5 39 22 bd ec 90 4c be d1 b0 8d be 07 72 a5 3d
       -0.039606053 -0.19977158 -0.27673963 0.080783896
0003a0 e5 45 3f bc 4e 10 25 be 41 b4 c1 3d a8 8a 59 3d
       -0.011674379 -0.16119501 0.09458209 0.05311075
0003b0 b9 99 94 be f3 41 f5 bb 17 29 66 bb 08 75 12 be
       -0.2902353 -0.0074846684 -0.0035119706 -0.14302456
0003c0 21 c8 2a 3e 6f dc 03 be 11 16 16 3d e2 21 fd 3d
       0.16677906 -0.12877057 0.036642138 0.12359978
0003d0 cb 75 17 be 0e 91 74 be 0a e0 b1 3d 0f a3 b5 bd
       -0.14791028 -0.23883459 0.0868531 -0.088689916
0003e0 df c5 66 3e 98 3e f5 38 f7 8d c8 b9 38 49 7e 3e
       0.2253642 0.000116941694 -0.00038252745 0.24832618
0003f0 9b eb cc bc ca 82 71 3c 8c 10 5c be 64 da af bc
       -0.02501469 0.014740655 -0.21490687 -0.021466441

0.bias f4 [128]
000000 3c 0e ad bc fb 7b 8a bc 3a 67 80 bc 85 46 9e bd
       -0.021124952 -0.016904822 -0.015674222 -0.07728294
000010 98 34 57 bd bc a6 15 bc 6b 22 a5 39 a1 8b 10 bd
       -0.05254039 -0.009133991 0.00031496896 -0.03528941
000020 42 31 ed bb 2e 1b c0 bc 64 8b 4d bc 6c 3a dc bc
       -0.007238538 -0.02345046 -0.01254544 -0.026883326
000030 25 5d 33 bc 7a b7 05 3c 68 6e 80 3d cb f0 56 bd
       -0.0109475 0.00816142 0.06271058 -0.05247573
000040 b0 9b 31 bd 5f d6 00 bd 4c 55 43 bd 7f 9f f4 3c
       -0.043361366 -0.03145444 -0.047688767 0.02986121
000050 5d ec b5 bd 63 6d 5d bb fb 43 90 bc 6c 2a 08 3c
       -0.08882973 -0.0033787123 -0.01761054 0.008310895
000060 23 6f 1e bc 10 33 03 bc 71 16 09 3d 99 e5 6a bc
       -0.009670052 -0.00800778 0.033468667 -0.014336967
000070 6c 27 9a 3c 61 dd 9f bb aa 1e 6b bd 90 1e b2 bc
       0.018817626 -0.0048786853 -0.05740229 -0.021743089
000080 0f 12 97 3c 55 5f 72 bd 71 1a 85 bc 49 72 23 bd
       0.018441228 -0.059172947 -0.01624796 -0.039903913
000090 41 35 c9 3c 35 7d 71 bc 48 a7 38 bd 86 c5 e7 3c
       0.024561526 -0.014739324 -0.045081407 0.028292429
0000a0 78 9a cc 3c 03 14 88 3c da 31 3c bc af f5 94 3c
       0.024976 0.016611105 -0.011486495 0.018183557
0000b0 a7 b5 45 bd 29 e4 f5 3b 21 d7 c9 3c 7a 25 06 3c
       -0.04826894 0.0075040055 0.024638714 0.008187646
0000c0 eb 98 3b bc 02 63 8b bc e4 1a 67 3c 22 57 b2 bd
       -0.011450033 -0.017014984 0.014105532 -0.087080255
0000d0 6c 21 0a bd be ef a0 bb 21 f9 98 3c 58 e1 61 bc
       -0.03372328 -0.004911392 0.018673481 -0.013786636
0000e0 25 e5 8a 3c 88 a9 30 3c a9 54 dd bc 21 6b 3e bc
       0.016954968 0.010782607 -0.027017908 -0.011622221
0000f0 85 e9 c2 bc 5f 95 91 bb 99 0a 65 bc c2 12 be bb
       -0.023792991 -0.0044428553 -0.013979577 -0.005800576
000100 e6 59 bf 3c b1 d4 96 3c 36 74 9d bc bc 1d 41 bd
       0.023358297 0.018411966 -0.019220453 -0.047147498
000110 e0 1f 8a bb ac 58 c6 ba 3f 60 11 bc e8 ac 8a bc
       -0.0042152256 -0.0015132627 -0.0088730445 -0.016928151
000120 f1 3b 97 bd ba a6 f0 bb 51 d9 b7 bb b9 6b 55 3c
       -0.0738448 -0.007344094 -0.005610623 0.013026171
000130 eb 16 8b bc 5b 88 7f bc 9f 9c c7 3c 0e c8 0a 3d
       -0.016978702 -0.0155964745 0.024366675 0.033882193
000140 f0 ed 89 bd 71 ef b3 3c dc cd 25 bc 80 1f 8f bc
       -0.06734836 0.02196476 -0.0101198815 -0.017471075
000150 20 08 33 3d 88 f7 ad bc 54 15 82 bc f1 d1 7a bd
       0.04370892 -0.021236196 -0.01587931 -0.061235372
000160 e4 07 2a bd 57 d5 1d bd c1 9a 72 3c d8 df 72 3a
       -0.04151143 -0.038533535 0.014807404 0.00092649227
000170 1a 9c 5a bc 94 55 e4 bc c8 c6 93 3c 33 4f 96 39
       -0.013342882 -0.027872838 0.018039122 0.00028669238
000180 9b ea ec bc cb 8e 5d bc bb 3d ab bc 0f d3 19 3b
       -0.028920462 -0.013522814 -0.020903459 0.0023471748
000190 ee 86 3f bc 4e 78 f4 bb 5f b9 96 3c bc 58 fa bb
       -0.011689885 -0.0074606305 0.018398939 -0.0076399725
0001a0 60 3f 58 bc 39 c1 49 bc d0 6c 28 bb 0e e3 15 bc
       -0.0131987035 -0.012314134 -0.0025699623 -0.009148372
0001b0 95 3d f9 bb b0 37 5f bb d9 dc fe bb 2c 8a b3 bc
       -0.007606218 -0.0034060292 -0.007777792 -0.021916471
0001c0 a7 58 fb bb da e4 3d bd 3e ac 28 bd 2c 82 d3 3c
       -0.0076704803 -0.046360828 -0.041179888 0.025818907
0001d0 6d d7 f0 3b ca ea 78 bb 13 22 13 bc 1b 4f db bb
       0.0073498995 -0.0037981742 -0.008980292 -0.0066927797
0001e0 f7 00 b4 3c 2b 8f 21 3c a7 29 3e bb bf 8e c6 b9
       0.021973116 0.009860794 -0.0029016526 -0.00037871857
0001f0 c8 80 53 bc 5a 81 71 bd e5 0c 41 bc b2 5f eb bc
       -0.012909122 -0.05896125 -0.011782859 -0.028732155

2.weight f4 [128, 128]
000000 73 be 03 be 54 cc df bd 4e e0 d4 3d c9 50 94 3e
       -0.1286562 -0.10927644 0.10394345 0.28967884
000010 c9 8e 18 be 5f 77 83 bc 27 54 88 3c 14 9d 0a be
       -0.14898218 -0.016048132 0.01664169 -0.13536483
000020 a6 4b ad bb 6f 8b 40 bd 7f 95 10 3e 3c 62 f6 3d
       -0.005288559 -0.047007974 0.14119528 0.120304555
000030 4a 9d 56 bc c9 8a b7 3c d5 4d f9 bd 18 12 16 be
       -0.013099024 0.022405045 -0.121730484 -0.1465534
000040 22 1b 02 3d 47 1d 73 bd cc a1 a9 3d 9c fc b1 be
       0.031764157 -0.059354093 0.082828134 -0.34763038
000050 e5 27 96 ba 75 4d c7 bd ba d7 9d bd c7 57 12 bd
       -0.0011455981 -0.09731571 -0.07707162 -0.035728242
000060 32 1f 71 bb e9 d6 9c 3d de 19 44 be 6a ec 07 3d
       -0.0036792275 0.07658178 -0.19150493 0.033184446
000070 fa 78 a7 bd d2 43 26 3d c9 c6 d3 3d f0 68 e4 3d
       -0.08177371 0.040592022 0.1034065 0.11152828
000080 be 54 26 3c fa 71 c5 3d 05 c9 4e 3d 1e 91 cc bd
       0.01015204 0.0964088 0.050484676 -0.099886164
000090 16 77 f2 bc 87 e6 dc 3c 94 ba c7 3d a4 d4 3a bf
       -0.0295978 0.026965393 0.09752384 -0.72980714
0000a0 1a 52 b1 be f9 a0 12 bd 22 4a 24 3e 75 ba b4 3d
       -0.3463295 -0.035798047 0.16043904 0.08824626
0000b0 53 86 86 3c ea c6 86 bd 4c e5 47 be 4f 46 02 3e
       0.016421473 -0.065809086 -0.19521064 0.12722133
0000c0 0a cd 28 3c a2 c5 c8 bd 69 19 b4 be 62 6b d7 3d
       0.010302791 -0.098033205 -0.35175636 0.105185285
0000d0 bd 8b 63 bd af 46 9e bd f0 40 c3 be c3 80 7f 3d
       -0.055553187 -0.077283256 -0.3813548 0.062378656
0000e0 ea ab c8 bd 19 4e ff 3c c1 56 a3 be bc 11 0a 3d
       -0.09798415 0.03116517 -0.31902125 0.03370832
0000f0 bf 81 25 bd e4 23 55 bc 27 1f 28 bc 39 d9 8e 3d
       -0.04040694 -0.013009045 -0.010261334 0.06975026
000100 0f 59 34 be 90 1c b1 bd fa f2 84 bc 32 6a 1e be
       -0.17612098 -0.08648026 -0.016229142 -0.15470198
000110 41 e9 01 3e e1 7e f3 bd 65 29 e3 bc 90 24 fc 3c
       0.12686636 -0.118894346 -0.0277297 0.030779153
000120 d4 7a 82 3d 35 54 ea bd 29 15 c2 3d 83 b1 39 3c
       0.06371084 -0.114418425 0.09476692 0.011333826
000130 ba bb 65 3d 9e b0 7e bd ac 06 64 3d e4 6e 37 3c
       0.056087233 -0.062180154 0.055670425 0.011195872
000140 4c 80 a9 bd b9 ca f7 bc df f0 3d 3e bf 14 81 3b
       -0.08276424 -0.030248033 0.18548916 0.0039392407
000150 43 0a 12 bd e9 cd c9 3d 19 bd b1 3d 50 7f 99 3d
       -0.035654318 0.09853727 0.08678646 0.07494986
000160 c7 94 28 3d e6 14 90 3d a7 fe ab 3d 8b b9 e0 3d
       0.04115751 0.07035236 0.083981805 0.109728895
000170 36 4f dc bd 55 cd 86 3e b5 3f f4 3d 1a d0 bc bd
       -0.10757296 0.2632853 0.11926214 -0.0921938
000180 9f 3a 3a bd 25 8e 92 bd c9 d6 11 3e 54 42 b3 bd
       -0.04546606 -0.07156018 0.1424209 -0.087528855
000190 a7 d0 f4 bd 60 0c 1a 3d eb cf 80 bd 41 24 ce bd
       -0.1195386 0.037609458 -0.06289657 -0.10065509
0001a0 78 be 98 bb c3 9e 22 3d 7f 10 62 3d 5b 64 0b 3e
       -0.0046613775 0.03970219 0.055191513 0.13612501
0001b0 ee 05 ed 3d 8a 33 3b 3d d0 6b 42 3d b3 4b bf bd
       0.115733966 0.04570345 0.0474661 -0.0934061
0001c0 ba 65 46 3d 11 3d 85 3d 34 b1 83 3d 89 c0 69 bd
       0.048436858 0.06505788 0.06430283 -0.05706838
0001d0 cf a0 af 3a 39 93 4b bd 54 d3 f3 3d d4 82 95 bd
       0.0013399365 -0.04970095 0.11905542 -0.07300344
0001e0 66 f4 4e 3c 58 76 26 be 98 9f 5a 3e 94 36 c4 bd
       0.012631511 -0.16256082 0.21349943 -0.095807225
0001f0 be 6a 97 bd e5 35 03 be 69 56 bf bd 32 aa 8e 3d
       -0.07393406 -0.12813528 -0.09342653 0.06966056
000200 73 25 11 be a5 5e 2e bd 0f 22 3c 3c 4b ac 9c bd
       -0.14174442 -0.04257073 0.01148273 -0.0765005
000210 02 04 bd bc ab af d9 3d fc 44 df 3d 8c cb d0 bd
       -0.0230732 0.10629209 0.109018296 -0.101950735
000220 01 6c 92 3d a7 f7 2e bf 3e 2e 92 3c c4 23 d3 3d
       0.07149506 -0.6834664 0.017844316 0.10309556
000230 49 b4 02 be 71 69 24 be d2 b4 f1 3c 5d 3f 19 3e
       -0.12764086 -0.16055848 0.029505167 0.14965577
000240 e8 ec 15 be cf a6 8c 3d 79 db e1 3d 1a af c1 bd
       -0.14641154 0.06867754 0.11028189 -0.09457226
000250 20 f1 10 3e 13 a1 9d 3d b4 0a d1 3d 23 d7 b0 bc
       0.14154482 0.07696738 0.102071196 -0.02158696
000260 87 5e 8a 3d 57 6c 06 3d c7 4c 91 bd 7a 9c 8f bd
       0.06756311 0.032818165 -0.07094722 -0.070122674
000270 fd 86 66 bc 9e a6 4e bd 55 34 b0 3c 36 d6 60 bc
       -0.01407027 -0.050451867 0.021509329 -0.013722947
000280 4f 0a 1c be 37 dc 1c be 52 de a4 bd 3a d6 21 3e
       -0.15238307 -0.1531838 -0.08050217 0.15804377
000290 1c f1 20 bd 4d 6f cf bd 50 4d c5 bd c4 58 51 3d
       -0.03929244 -0.10128651 -0.09633887 0.051110044
0002a0 c7 0b f4 bc c1 a9 8c bd 64 44 ba bd 1b a3 73 3d
       -0.029790772 -0.068683155 -0.09095076 0.05948172
0002b0 24 23 7e be 25 7a dc 3c b3 0a 30 3d 7a c5 19 3c
       -0.24818093 0.026913712 0.042978954 0.009385461
0002c0 3a 64 12 be 05 d7 5d 3e c1 39 0e be 9b 94 8f bb
       -0.14296046 0.21664055 -0.13889219 -0.004381729
0002d0 d6 2d f9 bc 38 4e ba 3d f0 d5 cc bd ac d8 05 3d
       -0.030417364 0.0909695 -0.10001743 0.032677338
0002e0 a6 23 4c bd 81 35 78 bd dc 81 3b be 3c 46 f2 3d
       -0.049838684 -0.0605979 -0.18311256 0.118298024
0002f0 dc af 28 be 0b 5d c5 3d e8 13 26 bd 9e 5b 0f 3e
       -0.16473335 0.09636887 -0.040546328 0.13999793
000300 29 70 40 be 1e b4 7a 3d 67 11 e0 bd 7b 63 d4 bd
       -0.18792786 0.06120693 -0.10940819 -0.10370537
000310 93 a6 93 bd ca f5 42 be 1e ac 66 3d 13 79 05 3c
       -0.07209506 -0.19039074 0.056316487 0.008146542
000320 15 fc dd 3d f7 90 4f bd 8c 4d 08 bd 44 6d 17 be
       0.108390965 -0.05067536 -0.03327708 -0.14787775
000330 13 e1 a1 3d ff 7c 00 3b 68 0a 33 be 03 01 b8 3c
       0.079042576 0.0019605753 -0.17484438 0.02246142
000340 f1 cd 83 be de 70 c5 3d e1 1d 90 bd e5 e6 05 3e
       -0.25743058 0.09640668 -0.07036949 0.1307636
000350 25 43 22 be 5f c6 f4 bd b1 a2 92 3c 79 4e 07 bf
       -0.15845926 -0.11951899 0.017899843 -0.52854115
000360 3f 10 a7 3d 23 98 e5 ba 41 b5 04 3e 08 87 a2 3d
       0.081573956 -0.0017516654 0.12959768 0.079359114
000370 d3 9e 51 bb 55 df 82 3d 03 d4 23 be ca 19 46 3d
       -0.0031985536 0.063902535 -0.15998845 0.048364438
000380 7d 1a f9 3a be be 09 be 1e ff d1 3d f9 ee 41 bd
       0.0019005087 -0.13451669 0.10253738 -0.047347043
000390 87 ce 6a 3c 25 0c f0 bb 93 9f 36 bd 1c f5 bc 3c
       0.0143314665 -0.0073256665 -0.044585776 0.023066096
0003a0 b7 04 17 3e 21 d1 c6 3b 0e d6 a8 3c e2 e0 9a bd
       0.14747892 0.0060674106 0.020609882 -0.07562424
0003b0 cd 14 61 b9 a8 ed f5 3c 9b c4 01 3e ef fb 1f 3e
       -0.00021465421 0.03002055 0.12672655 0.15623449
0003c0 12 f7 0d 3d ee 68 3b 3d f8 e8 3e bd 74 44 b8 be
       0.034659453 0.045754366 -0.046608895 -0.35989726
0003d0 db 75 83 3d e9 b0 13 3d 10 f6 9d bd d8 1e b2 3d
       0.064189635 0.036057387 -0.07712948 0.08697289
0003e0 df 78 f1 3c fd 60 a1 3d 43 aa d3 bd 59 6d b2 3d
       0.029476581 0.07879827 -0.10335209 0.08712263
0003f0 6e 0b a8 bd f8 0b 3d be 55 bf 4b bd 5b 48 54 3d
       -0.08205305 -0.18461597 -0.049743015 0.051826816

2.bias f4 [128]
000000 62 5e 50 bb b6 f7 72 3b 8d ff 9a bc db 4f b6 3b
       -0.0031794538 0.0037073917 -0.018920684 0.0055637187
000010 75 ab b4 3b 27 4e a9 bd 82 f5 88 3c 3e 20 e9 3c
       0.0055136033 -0.082668595 0.01671863 0.028457757
000020 ed 93 67 3c fc e9 24 bd f9 58 aa 3b 19 de 98 bc
       0.014134389 -0.040262207 0.0051985946 -0.018660592
000030 8a 3e 51 bd 87 51 20 3b 16 ad 31 3c f0 83 25 3d
       -0.051085033 0.0024462657 0.01084449 0.04040903
000040 e2 2e de bc 4b 5b 8c 3c 06 38 58 3c e1 d8 3a bb
       -0.027121965 0.017133376 0.013196951 -0.0028510618
000050 f6 48 9d b9 14 ae 83 bc 9c ff ad bb 58 e9 80 3c
       -0.00029999734 -0.016074218 -0.005310012 0.015736267
000060 57 d2 bb bb 74 06 15 3c 39 00 b4 bc d9 3d 6f bc
       -0.0057318616 0.009095777 -0.021972762 -0.014602148
000070 df af 2f 3d 79 23 81 ba 4d 6b 3f bb fa a1 a9 bc
       0.042892333 -0.0009852491 -0.0029208243 -0.02070712
000080 a9 e7 0e bc 77 ac d5 3a 18 78 a4 3b b6 80 8d 3b
       -0.008722224 0.0016302009 0.005019199 0.004318322
000090 25 84 a8 3b 6b 08 03 bc 00 00 00 00 4f 0e ef 3b
       0.005142706 -0.0079976125 0.0 0.007295407
0000a0 00 00 00 00 52 f9 a4 bc 5a 00 0b 3b 81 cd 50 3b
       0.0 -0.020138416 0.0021209926 0.003186077
0000b0 3f 18 a0 bd 16 de e6 bc 56 a5 f9 bc a6 dc 4c bd
       -0.078171246 -0.02818207 -0.030474346 -0.050015114
0000c0 a3 d4 eb bc 14 ca e0 b7 6e bd 54 3c 4c 93 4f bd
       -0.028787917 -2.679698e-05 0.012984617 -0.050677583
0000d0 13 9c 91 bd 63 78 33 bd a5 f1 bc bd ae fa 76 bb
       -0.07109847 -0.04381598 -0.092257775 -0.0037686038
0000e0 95 d9 5b 39 66 cf 11 bc 17 62 4c bc 11 0c c8 bc
       0.00020966523 -0.008899545 -0.012474558 -0.024419816
0000f0 51 94 a1 bd 15 6f ef 3c 7b bc 15 3c 25 6e a9 3c
       -0.07889617 0.029227773 0.0091391755 0.020682404
000100 69 b7 ce bb 55 dd d5 3a 07 d2 11 3c 34 e9 9a 3a
       -0.0063084853 0.0016316572 0.008900172 0.0011818768
000110 f5 fa 47 bc e9 6a 2c ba 28 8b 98 3c 4b 5a b3 3c
       -0.012205829 -0.000657721 0.018621042 0.021893641
000120 d6 94 26 3c dd 0f b7 3c 6d 02 d0 bc 5a 61 c8 bb
       0.010167321 0.022346431 -0.025391782 -0.006115121
000130 52 00 f1 bb 91 f4 d5 3c c1 2b 2c 3d f7 40 2a bd
       -0.0073547745 0.026117595 0.042033914 -0.04156586
000140 87 02 58 b8 13 70 7d 3b e4 16 a6 bc 71 0c 09 3b
       -5.1500767e-05 0.0038671538 -0.020274587 0.0020911957
000150 12 de 39 bc 41 71 ae 3c d9 08 fd bb 69 b0 60 bb
       -0.01134445 0.021294238 -0.007722002 -0.0034284836
000160 89 71 30 3c cd 5d 82 3c 53 c8 0c 3c a6 7a 82 bd
       0.010769256 0.015913868 0.008592683 -0.063710496
000170 cc 52 15 3c 40 34 32 bc 30 ad ba bc 15 2e f2 ba
       0.009113979 -0.010876715 -0.02278766 -0.0018476868
000180 45 a6 9c bc 2b 55 8b ba ef f0 9a bd 36 91 20 3c
       -0.019122252 -0.001063024 -0.07565486 0.009800246
000190 5f 99 4c 3b 0d 87 8e bd 71 4e 83 bd b1 a7 95 bc
       0.0031219346 -0.06959353 -0.06411446 -0.018268438
0001a0 1b 8e fb bc a3 69 7f bd 0f 44 9c 3c 93 34 ff 3b
       -0.03070741 -0.062356602 0.019075422 0.0077882498
0001b0 39 01 85 3c a4 76 9f bb 29 c2 30 bb 13 8a 82 bb
       0.016235935 -0.004866438 -0.0026971197 -0.003983745
0001c0 cf 0e 07 bc 37 6e 84 3d 58 eb 10 bc e9 57 1d 3c
       -0.008243277 0.06466334 -0.008845173 0.009603479
0001d0 c7 4b ae bd e6 7e 64 bc 4e 23 46 bc 5d 28 50 bb
       -0.08510547 -0.013946271 -0.012093378 -0.003176234
0001e0 2e cc 13 3c b2 b4 81 3b 6b 8e df bd 23 5f 4e bd
       0.009020848 0.003958308 -0.10915836 -0.0503837
0001f0 af 63 42 bd c8 90 91 3b 31 c7 59 3d 26 80 bb bd
       -0.047458347 0.004442308 0.05316848 -0.09155302

4.weight f4 [128, 128]
000000 ce 16 50 3e 0c ed 89 bd 31 a7 d7 bd 53 bc 2d bd
       0.203212 -0.06734666 -0.10529936 -0.042415928
000010 78 93 3e 3e 01 5c 01 be bd 9d 0b be 26 a1 7e bc
       0.18610942 -0.12632753 -0.13634391 -0.0155413505
000020 68 aa 70 bc 01 51 87 3d 43 4a f0 3d 28 0d 0b 3d
       -0.0146890655 0.06607247 0.11732914 0.033948094
000030 e8 23 21 be 3f fc a4 bd be eb 17 3e e3 11 09 be
       -0.15736353 -0.080559246 0.14836022 -0.1338573
000040 75 bb 01 bf 43 68 e6 3d 19 00 83 3e c3 e1 e0 bc
       -0.5067666 0.11250355 0.25586012 -0.027451402
000050 4d 4e 17 bd f0 b9 6e 3b 37 c6 8c bd 4b be 2a 3e
       -0.036939908 0.0036426745 -0.06873744 0.16674154
000060 c6 69 2e 3e 41 1e 0e 3c 7a e1 65 be 36 45 49 be
       0.17032537 0.008674205 -0.22449294 -0.19655308
000070 08 bc a6 bd ec ec 02 be eb 0b 86 bc 4f c2 62 3c
       -0.08141333 -0.12785691 -0.016363105 0.013840272
000080 ba 6b d2 3c 1a c5 19 bd c6 39 f5 3c bb f3 0c 38
       0.025686134 -0.037541486 0.029934775 3.3605593e-05
000090 74 d6 1e 3c a5 6a 1f 3e 86 b3 9d 3d 59 5c c8 bd
       0.009694684 0.15568025 0.07700257 -0.09783239
0000a0 0c 63 ba 3d ae db 5d 3e 48 5e 6f bc d2 ab 93 3d
       0.09100923 0.21665832 -0.014609881 0.072105065
0000b0 4d fc 50 bd ed 97 13 bf b8 6d 32 3e a9 0a bc bc
       -0.051021863 -0.57653695 0.17424667 -0.022954302
0000c0 fb 91 8e bd 2f e3 ee 3d 3b 72 97 be 39 52 05 3e
       -0.06961437 0.116644256 -0.29579338 0.13019647
0000d0 49 3e 9f 3d 5c b7 cc 3d 87 55 eb 3c 33 b2 b7 3b
       0.07775552 0.099959105 0.028727306 0.00560596
0000e0 45 89 95 3c 26 10 40 bd 0b 29 e7 3d b5 57 1e be
       0.018253932 -0.0468904 0.11287125 -0.15463145
0000f0 fd 36 5e be 72 6c 5d be 4f 32 e0 3d 1f ba b0 bd
       -0.21700664 -0.216234 0.109470956 -0.0862925
000100 6f 61 bc bd 32 1c 95 3d 4d db d5 3d 7e 0b 8b 3d
       -0.091982715 0.072807685 0.10442219 0.06789301
000110 e7 f5 b7 3d 5e 33 14 bc 54 f2 01 be 6b b0 a8 bd
       0.08982449 -0.00904545 -0.12690097 -0.08236774
000120 9f e6 a0 3d e3 d5 97 bd d5 2c 9d bd 12 d4 fe 3d
       0.078564875 -0.074138425 -0.07674567 0.12442793
000130 0e e2 ee bd 16 ff ec 3d 58 86 8b be 6e 10 11 be
       -0.1166421 0.11572091 -0.27250934 -0.14166424
000140 79 7b 8b bd a9 56 a1 3d 8c dd 51 be bd 92 3f 3c
       -0.0681066 0.07877857 -0.2049467 0.0116927
000150 1a a8 89 bd 58 51 a8 bd 48 b4 b9 bd 06 25 da bd
       -0.06721516 -0.0821864 -0.09067589 -0.10651593
000160 70 e8 4a 38 8a 00 97 be db c1 22 be a0 df a6 3d
       4.8377027e-05 -0.294926 -0.15894262 0.08148122
000170 f7 c1 28 be 90 42 7d 39 4d 2b 7a 3d f4 08 aa 3d
       -0.16480242 0.00024152757 0.06107645 0.08302489
000180 bf 99 b6 3d 67 bc d4 bd a3 bf ac bc 45 ef ec bd
       0.089160435 -0.103874974 -0.021087473 -0.115690745
000190 46 f7 b6 bd 62 a1 58 be 1b de 94 bc 65 3d cb bd
       -0.089338824 -0.21155313 -0.018172314 -0.099238195
0001a0 63 90 b7 3d 64 16 40 bd f8 51 62 3e 03 26 1e 3e
       0.089630865 -0.046896353 0.22101581 0.15444188
0001b0 4d 33 fc 3c 53 4d e3 bd da ad 83 bd dc e9 fc bc
       0.03078618 -0.11098733 -0.06429644 -0.030873232
0001c0 f0 81 40 bd d6 45 29 3d d8 f9 81 3d 7c 12 00 bd
       -0.046998918 0.041326366 0.06346482 -0.031267628
0001d0 eb 7e 27 bd 15 e5 09 3e a9 b9 92 3d 6a 43 e8 bd
       -0.040892523 0.13466294 0.07164318 -0.11340983
0001e0 bd c5 6c bd 2a fd cd bd f2 08 bf bc ea 09 db bc
       -0.057805765 -0.10058053 -0.023319695 -0.026738126
0001f0 86 e3 27 bd 0c 07 0d be ee 1c ac 3d 90 4c 93 3d
       -0.040988468 -0.1377222 0.084039554 0.071923375
000200 99 e2 a4 bc 63 dc c6 3d bc 87 d0 3d 03 f8 31 3e
       -0.020127581 0.09710004 0.10182139 0.17379765
000210 94 15 62 3d 00 01 10 3d a6 7b fa 3d a8 72 04 be
       0.05519636 0.035157204 0.12230615 -0.12934363
000220 32 f8 72 bc ee 0e b8 bb 0a 29 df 3c f4 a2 17 3e
       -0.014829682 -0.005617014 0.027241249 0.14808255
000230 9d 3a 64 3d 0e 84 37 3d 46 27 2b be 95 08 c2 bc
       0.05571996 0.04480367 -0.167142 -0.023685733
000240 b2 a6 47 3e 71 cd 88 3d 00 57 81 b9 8a cc 0c bd
       0.19497183 0.0667981 -0.00024669617 -0.03437475
000250 5b bf f7 3d b6 eb cb 3d 3c 68 a0 3d 13 f6 ab bd
       0.12097045 0.09957068 0.07832381 -0.08396544
000260 8d aa 0d 3e 26 bb 35 3d 42 25 4b bc 6b b6 5d 3e
       0.13834591 0.04436793 -0.01239902 0.21651618
000270 1e 49 75 3c 81 70 c8 3c fc 36 60 bc 99 35 7a 3d
       0.014971046 0.024467709 -0.013684984 0.06108627
000280 d3 a5 36 be ad 8d c7 3d 54 d4 b4 bd f2 0e a1 3c
       -0.17836694 0.097438194 -0.08829561 0.019660447
000290 94 fe 7c 3d b5 3e a9 bd 48 10 25 bd 6f d7 40 3e
       0.061766222 -0.082639135 -0.04029873 0.18832181
0002a0 3f 2b d4 3d 4d d9 9c bc 6a 78 a2 bc 9d 5d 93 3d
       0.10359811 -0.019146586 -0.019832809 0.0719559
0002b0 33 0f 44 bd 38 03 f9 bc 10 6c 1a 3e fb ef 74 bd
       -0.047866058 -0.030397043 0.15080285 -0.059799176
0002c0 17 a1 7a 3e eb 23 c8 bd f7 fb 42 bd 05 4f 08 be
       0.24475513 -0.09772476 -0.047603574 -0.13311394
0002d0 c0 22 26 3e a0 92 02 be 1f 85 2c 3c bb a6 ca bd
       0.16224194 -0.12751245 0.010529785 -0.098950826
0002e0 44 98 0d be 47 3b 8a bd d4 17 3e 3e de 0b 7c 3e
       -0.13827616 -0.067495875 0.18563777 0.24613902
0002f0 56 a8 78 bd 2e 13 04 be 0c 37 83 bd b2 5b 21 be
       -0.060707413 -0.12897941 -0.06406984 -0.15757635
000300 2b 3c 09 3d bf 86 07 3d b8 1d 32 bd 95 63 bb 3b
       0.033504646 0.03308749 -0.043485373 0.005718658
000310 b9 67 c5 bd 58 76 42 be 18 b3 b0 bd d9 a4 83 3d
       -0.09638924 -0.18990457 -0.086279094 0.064279266
000320 7c c4 bf 3d 9d b4 88 3d 3a 9d 5d 3d 3e 5b 87 bd
       0.09363648 0.06675074 0.05410502 -0.066092
000330 d4 02 fe bd 94 64 cf bd 3d 9d 2b be b0 19 6e bc
       -0.12402883 -0.10126606 -0.167592 -0.014532492
000340 ba 5b c9 3d 2e 56 3b 3e 68 13 24 be cb 69 0f 3e
       0.098319486 0.18294594 -0.16023028 0.140052
000350 a3 9c 91 3d 70 c3 e1 3c 46 29 8a 3c ce fd 14 be
       0.07109954 0.027559012 0.016865384 -0.14549944
000360 ae 84 85 3d 2c 75 0b 3e 13 b0 71 bd 15 c8 19 3d
       0.06519447 0.13618916 -0.059005808 0.03754433
000370 60 74 e6 3b 8d e2 ac 3c 84 5c ec 3d 12 1d 3b bd
       0.007032916 0.021104122 0.115410835 -0.04568202
000380 f5 35 1a 3d 07 83 1d be 82 81 5c bd d9 c9 d5 3c
       0.037649114 -0.15382014 -0.053834446 0.026097225
000390 88 cf 77 be 8a 1d 74 3e 43 5e d8 3d 7a 4a f7 3c
       -0.2420026 0.23839393 0.10564854 0.03018688
0003a0 a8 8c 48 3e 3b 39 11 3e 90 e7 32 3d ed d7 37 be
       0.19584906 0.14181988 0.043677866 -0.17953463
0003b0 62 45 1c 3e 58 9e f6 bb 97 dc 56 bd 11 8e 9c bd
       0.15260842 -0.0075262003 -0.052456465 -0.076442845
0003c0 bf b2 a8 ba 41 87 d4 bd cd 19 f2 3d b9 46 02 3c
       -0.0012870653 -0.1037736 0.11821327 0.007951432
0003d0 c8 8b 15 3e c7 5f 6a 3d f7 b5 06 be af 53 ef bd
       0.14604104 0.057220247 -0.13155352 -0.11685883
0003e0 8f b3 97 3e 2a bc dc ba 63 76 37 3e 3b 32 a9 bb
       0.2962918 -0.0016840745 0.17916255 -0.0051634586
0003f0 90 b6 f8 3d 6f 55 d3 bd 01 15 3b be b8 d7 cb 3d
       0.12144196 -0.103190295 -0.18269731 0.099532545

4.bias f4 [128]
000000 4c 8c 76 bd e2 8d 31 bd 9a cf 5a bd fd 95 d7 3b
       -0.06019239 -0.0433482 -0.05342064 0.0065791593
000010 fa bf 33 ba 1b dc f7 bc 75 24 a7 3b da 47 1f bc
       -0.0006856915 -0.030256322 0.0051007816 -0.009721721
000020 4b 00 3c bc a9 25 72 3c 8d 36 25 3c 59 00 80 bc
       -0.011474679 0.014779487 0.010083807 -0.015625166
000030 87 db de 3b a2 89 b2 bb c6 a6 38 3c 36 72 a4 bc
       0.006801072 -0.005448536 0.011270231 -0.020073991
000040 3b 5b 13 bd 56 3c c9 bc 8d d2 7a bc e8 d7 a7 3b
       -0.035975676 -0.024564903 -0.015308988 0.0051221736
000050 a5 ca ac 39 1e f6 5d 3d 39 02 aa 3a b3 d5 80 3c
       0.00032957378 0.054189794 0.0012970633 0.0157269
000060 cb 26 14 bc b0 ff a1 bc c8 95 66 3c 33 a0 1b bc
       -0.009042452 -0.019775242 0.014073797 -0.009498644
000070 cd 0d 0a bc 3e 81 75 3c fc ed d3 bb 35 5c 75 ba
       -0.008426142 0.014984427 -0.006467579 -0.0009359748
000080 09 ff 76 bd 30 a1 47 3c c0 7c 04 bd 09 4f 2f bd
       -0.060301814 0.012184426 -0.032345533 -0.042799983
000090 8a ff 80 bc 40 ef 60 3b 1b 34 54 3c 9d d4 f7 3b
       -0.01574685 0.0034322292 0.012951876 0.0075631873
0000a0 4b 23 88 bd ba 36 0c bb 18 9b 7f 3c 0b 6c 98 3c
       -0.066473566 -0.0021394924 0.015600942 0.018606206
0000b0 75 f7 d9 bd 09 d8 2c bb 3c 3b f9 3c c5 39 0a bc
       -0.10642902 -0.0026373884 0.030423753 -0.008436625
0000c0 8e 21 aa bd 57 6a 5e 3b 17 39 27 3b 4a 81 12 bc
       -0.08307181 0.0033937895 0.0025516206 -0.008941958
0000d0 5c 23 9f bc 00 aa 26 bb 67 45 a1 bc 9b 41 a9 3c
       -0.01942604 -0.0025430918 -0.019686414 0.020661166
0000e0 19 28 a3 bd 4a 9c 95 bb 8d 91 ec 3b 9e ed 3c 3c
       -0.079666324 -0.0045657502 0.0072194994 0.011531262
0000f0 c7 2d 50 bb fc 93 2a bd 91 b1 b9 bb 5b 4c a6 bb
       -0.0031765567 -0.041645035 -0.0056669195 -0.0050750202
000100 6e ac 08 bc c9 d7 c1 3b b9 15 80 bc db 6b 2a 3c
       -0.008341892 0.005915616 -0.015635358 0.010401691
000110 25 86 b4 3b f0 65 b2 bd d4 0a 89 bc d5 07 46 bd
       0.0055091553 -0.08710849 -0.016728796 -0.048347313
000120 f8 d7 46 bd 0b 54 23 bd 4c fe 94 3c 5e 14 94 bb
       -0.048545808 -0.03987507 0.018187664 -0.0045190295
000130 88 6d 03 3d 61 5d 9e bc fb 73 07 3d 65 a9 2c 3c
       0.03208688 -0.019331636 0.033069592 0.010538434
000140 94 5a 41 3c 05 b7 b7 bb 98 0a c5 bb 0e cc 96 39
       0.011801381 -0.0056065344 -0.0060132258 0.00028762262
000150 ef 90 75 ba f2 e1 a0 3b 3b 10 79 bc c7 3c c7 bc
       -0.0009367605 0.0049097473 -0.015201624 -0.024320973
000160 41 dc be bc a4 6e 1d bd 2e 78 2d 3a 99 13 24 bc
       -0.023298385 -0.038435593 0.00066173344 -0.010014438
000170 82 c4 c1 bc 30 6f 6c bc c4 46 9e bc 8e 0d 71 3c
       -0.023653273 -0.014430806 -0.019320853 0.014712704
000180 09 b7 10 bc 08 76 a8 bd e5 54 58 3c 80 31 54 3a
       -0.0088327015 -0.08225638 0.013203834 0.0008094534
000190 88 a8 b2 bb 5d aa 5e bd d5 88 f2 bb b0 f8 62 3c
       -0.0054522194 -0.05436169 -0.0074015656 0.013853237
0001a0 5b b9 9d bb 0e 9f 6e bd c4 b9 9d bc a4 65 6c bd
       -0.004813356 -0.058257155 -0.019253619 -0.05771412
0001b0 15 d2 58 bd 6c 96 4d bc f6 b6 08 3d 9b 7c be 3c
       -0.052934725 -0.01254807 0.03337761 0.023252776
0001c0 bf 0f 88 3b fd 07 0d bc 45 31 d8 bc a3 ef 16 3b
       0.0041522677 -0.008607862 -0.026390681 0.0023031018
0001d0 73 9b d0 bc e9 38 60 bc 5c f9 2f bc 68 79 0e 3c
       -0.025464749 -0.013685443 -0.010740604 0.008695938
0001e0 13 5e b0 3c bb 6b 01 bd 13 71 45 3b a0 bf 75 bb
       0.021529233 -0.03159688 0.0030127212 -0.003749825
0001f0 88 a5 1d bd 6e d1 74 bc d3 6c 98 bb 05 7d 89 bd
       -0.03848794 -0.01494251 -0.0046516447 -0.06713299

6.weight f4 [128, 128]
000000 10 35 0c be 4a fb c3 3c a1 ca 06 be 3e c7 d2 bd
       -0.13692117 0.023923535 -0.13163234 -0.10291909
000010 b3 6f 01 3e 06 54 0c 3e 32 94 cb 3c 01 67 96 bd
       0.12640266 0.13703927 0.024850938 -0.07343865
000020 07 bd e9 bd 6f 1f 41 3d d9 17 59 3d 24 a7 a0 3d
       -0.11413007 0.047149118 0.05300126 0.078443795
000030 bc 0f 2c be f7 61 c6 be d1 02 98 3c 97 5f fd 3d
       -0.16802877 -0.38746616 0.01855603 0.12371748
000040 70 9d c7 3d 0b 3f a4 bc da b3 a6 3d a6 a6 17 bd
       0.09746826 -0.020049592 0.08139773 -0.037024163
000050 0a 35 51 bd b4 82 eb 3d f6 a0 be 3d a2 9f 9d 3c
       -0.051075973 0.11499539 0.093080446 0.019241158
000060 6c 7a d0 bd ca 8d 17 3e 74 b5 1f be 6f 5f 2f be
       -0.101796 0.14800182 -0.15596563 -0.17126249
000070 92 1c d6 3d d3 d4 58 3d 86 76 10 3e 4c 22 0e 3e
       0.10454668 0.05293734 0.14107713 0.1388027
000080 cc a8 38 be 2b bd a0 bd 37 b0 05 3e 2e 0f d4 3d
       -0.18033141 -0.07848581 0.13055502 0.10354458
000090 f2 c3 82 bd 0c e3 b5 3d b6 0d c7 3c e0 69 36 3c
       -0.0638503 0.088811964 0.02429853 0.011133641
0000a0 1e 91 8d 3e 96 28 e2 3c fc 27 e7 3d c5 f7 d5 be
       0.27649778 0.027607244 0.11286923 -0.41790596
0000b0 8a bb 27 be e2 e6 06 bb 41 98 88 be f0 51 e9 3c
       -0.16380134 -0.0020584394 -0.2667866 0.028481454
0000c0 dd 77 c3 bd 26 74 ac bc ca ef e2 3d cf 4a 23 3e
       -0.095443465 -0.021051478 0.110808924 0.15946506
0000d0 36 7b b2 3d 81 94 53 be 67 3a 14 3e ee ce ef 3c
       0.08714907 -0.20662118 0.14475404 0.029273476
0000e0 bd cf c5 be 23 b1 c6 bc 27 81 3f bd 17 14 42 bd
       -0.38635054 -0.024254387 -0.04675403 -0.04738244
0000f0 94 7b f3 3c 5e f1 d5 3c b5 e9 69 3d 5d b4 e8 3d
       0.029722013 0.02611607 0.057107646 0.113625266
000100 bc d1 e7 3c 54 f5 ad bc 50 1c dd 3d 9a fa 94 bd
       0.028298251 -0.021235146 0.10796416 -0.07274361
000110 9f e2 cd 3d 29 71 1e 3e eb 94 3e 3d 53 7e d3 3d
       0.1005299 0.15472855 0.046528738 0.10326829
000120 f8 24 33 3e aa 3e 6c 3d 93 60 d8 bd 52 93 12 be
       0.17494571 0.05767695 -0.10565295 -0.1431401
000130 6b e1 38 3e 05 fc e5 3d ce d1 1c 3e 07 bb 9b 3b
       0.1805474 0.112297095 0.15314409 0.00475252
000140 46 ce e3 bd 61 f0 4d 3d 5e 05 35 bd 84 28 b9 3d
       -0.11123328 0.05027807 -0.04419457 0.09040931
000150 5d ad 06 3e 38 35 6d bd 69 64 11 3e dc ae 14 be
       0.1315207 -0.05791208 0.1419846 -0.14519829
000160 dd ec 9d 3b 7d 33 d6 bd 14 43 a6 3d 28 e8 63 3d
       0.004819496 -0.10459039 0.08118263 0.055641323
000170 89 26 f8 bc ef a9 61 3d d8 03 81 3d be 6d f5 bc
       -0.030291812 0.055093702 0.06299561 -0.029959556
000180 69 62 ea bc 79 97 76 3e 2b ac 6a 3d d5 7c 52 bc
       -0.028611379 0.2408122 0.0572931 -0.012847145
000190 d5 a9 38 3c 26 b8 c1 bd 12 f2 91 3d f0 e4 06 be
       0.01127096 -0.09458952 0.071262494 -0.1317327
0001a0 fe d4 51 3d b0 64 09 3d a1 58 2c 3d 17 86 88 3d
       0.051228516 0.03354329 0.04207671 0.066662006
0001b0 e7 e7 3b be 1a c5 90 3d f4 d2 06 3d d7 2f 48 bc
       -0.18350182 0.07068844 0.032916024 -0.012218437
0001c0 dc 26 8f 3e 4c 72 50 be d4 03 0f 3e 09 fb d4 bc
       0.27959335 -0.20356101 0.13966304 -0.02599861
0001d0 86 f6 9b bd 8b 5c b9 bd ac 4d b6 be f1 91 00 3e
       -0.0761538 -0.09050854 -0.35606134 0.12555672
0001e0 15 f6 ee bd b9 2c 1c 3e 0c 63 a6 3c 99 d1 f5 bd
       -0.1166803 0.15251435 0.020310901 -0.12002868
0001f0 c9 92 b5 3c 7e 16 1d be 3a d4 6b bd fa 00 39 3e
       0.02216472 -0.15340611 -0.057575442 0.18066779
000200 2d bc db bb 73 a4 9d bd c7 3e 92 be 80 85 ed bc
       -0.006705782 -0.07697382 -0.2856352 -0.028994322
000210 84 76 3f be c8 5f c6 3d b3 da fe 3b f0 86 0d 3e
       -0.18697554 0.096862376 0.007777536 0.13821006
000220 53 1c 6c 3d f5 bc 0b 3d 91 37 9c bd 1e 3d 20 3e
       0.0576442 0.03411575 -0.07627786 0.15648314
000230 dc 2d 25 be 75 6b a2 bc 0d 7f 54 3d 81 ec ee 3b
       -0.16130775 -0.01982663 0.051878978 0.007291377
000240 85 2e 8f 3c a2 58 21 be 56 c2 1f be b6 70 6a bb
       0.017478237 -0.15756467 -0.15601477 -0.0035772747
000250 fa d1 e3 bc f6 6f 31 be d0 79 c6 bb a3 da b6 bd
       -0.027810086 -0.17327866 -0.0060570017 -0.089284204
000260 6f 18 99 3d 27 b9 1a be 71 56 9d bd d5 a3 19 3e
       0.074753635 -0.15109693 -0.07682503 0.15003903
000270 9d 4f d4 3d 71 f5 0d 3e b9 f9 3f 3d 3f 3d 17 be
       0.103667475 0.1386316 0.046869013 -0.14769457
000280 cd 65 82 bd 55 ea cd ba c1 32 a9 3d bc 5b 8d be
       -0.06367073 -0.0015710095 0.08261634 -0.2760905
000290 fa 93 a7 bd 05 4c e1 3d 1d c9 fe bd ba 10 a5 bd
       -0.08182521 0.11000828 -0.12440703 -0.08059831
0002a0 ff 38 85 be 72 71 32 3d 65 83 bc bc 91 58 8b be
       -0.26020047 0.04356522 -0.023011873 -0.27216008
0002b0 2d e9 bf be 88 2a 7a bc 95 10 b9 be 6a bf aa 3d
       -0.37482587 -0.015268929 -0.36145464 0.083372906
0002c0 e5 95 5f bd 16 cc 43 be 44 93 f1 bd 41 17 5a 3d
       -0.05458631 -0.19120821 -0.11795667 0.053244833
0002d0 f2 49 2e bd 0e 8e 9a bd a5 18 47 3e 25 81 22 3c
       -0.04255099 -0.07546626 0.19442995 0.009918486
0002e0 8e b6 a6 be 1a 36 97 bc ef d4 02 be 4f aa 53 bd
       -0.32561153 -0.018458415 -0.1277654 -0.05167609
0002f0 47 2d ce 3c 4f 53 73 3d 59 0a eb bd f9 86 86 3c
       0.025168074 0.05940562 -0.11476583 0.016421782
000300 fe d3 72 be ce 8c 50 3d d2 fd ff 3d 0e 6a f7 3d
       -0.23713681 0.05091553 0.12499584 0.12080775
000310 20 f6 69 3d 6a 82 ad be 61 a4 84 bd db 6f dc bd
       0.05711949 -0.3388856 -0.06476665 -0.10763522
000320 cd d9 12 be 57 5a 94 be 4b 29 a6 3d 8d c8 f0 bd
       -0.14340897 -0.28975174 0.08113345 -0.11757002
000330 1d 6a 21 3e 06 64 0f be 95 48 01 bd bc 6e 57 3c
       0.15763135 -0.14003 -0.03156336 0.01314896
000340 1b e3 b1 3d ba 7e a4 3d 2d 1d 6b bd 51 c1 03 bc
       0.08685895 0.08031984 -0.05740087 -0.008041696
000350 04 fb f1 3c 5a 1f d1 bd 75 a4 5f 3d 67 af 28 be
       0.029538639 -0.10211058 0.054600198 -0.1647316
000360 89 33 25 3d 09 0d 14 be b6 8f a5 bd cc 94 d3 3b
       0.04033235 -0.14458098 -0.08084051 0.006456947
000370 e9 58 ac bd d9 b4 1c 3d 6c 24 4e 3c 0e 3a 1c 3b
       -0.08415396 0.038258407 0.012581926 0.0023838314
000380 f8 d0 bc 3c 80 20 8c 3e 39 1f 01 3e dd 88 c8 bd
       0.023048863 0.27368546 0.12609567 -0.097917296
000390 54 b0 f7 bc 1f 39 1f bd 49 82 5e bd 91 17 f2 bc
       -0.030235447 -0.038872834 -0.05432347 -0.029552253
0003a0 26 46 d2 3d 3b bc 95 be 42 40 ec bd 41 07 6a be
       0.10267286 -0.2924517 -0.11535694 -0.2285433
0003b0 3d e1 1c 3e a9 36 f8 3d 51 3a 03 3d ec a5 9d bc
       0.15320297 0.121198006 0.032038037 -0.019244157
0003c0 57 45 35 3e 7d d4 28 3d 71 19 25 bc 33 8f 6b bd
       0.17702232 0.04121827 -0.0100768665 -0.057509612
0003d0 6c b1 0b be 9a 77 09 bd f8 31 06 be 2f 43 98 3d
       -0.136419 -0.033561327 -0.13104999 0.07434689
0003e0 8e 17 60 bd d1 db cd bd 3f 63 36 3e 09 02 2f be
       -0.054709964 -0.10051692 0.17811297 -0.1709062
0003f0 e8 02 9c bc db df 50 bd ed 5e c3 bc ff a6 e3 bd
       -0.019044355 -0.050994735 -0.023848975 -0.11115836

6.bias f4 [128]
000000 47 d3 21 3c 7f 24 a1 bb a7 36 c7 bc 71 0e 3c bd
       0.009877033 -0.0049176808 -0.024318052 -0.04591221
000010 79 e2 e6 bc 8f 28 8a 3c 6b 4a 0a 3c e0 49 b4 bb
       -0.028184162 0.016865043 0.008440594 -0.0055019706
000020 1e 6d 67 bc 9e 24 a8 3b 8e c6 53 bc 26 a6 e3 bb
       -0.014125137 0.0051313182 -0.012925757 -0.0069472967
000030 61 e7 8c 3c a4 6d bb 3b ca 33 ad bd c8 8c 07 bd
       0.017200174 0.0057198573 -0.084571436 -0.033093244
000040 fc 75 0a bd 61 63 8c 3c a1 e4 8f 3b bd dc ec 3c
       -0.033803925 0.017137231 0.0043912684 0.02891385
000050 11 7b e3 3b 19 8f ac bd f6 02 01 bc 14 f9 a4 bc
       0.006942161 -0.08425731 -0.007874241 -0.020138301
000060 af e5 c4 bc 7e 63 2d bd 4e 80 f0 bc c7 25 8c 3b
       -0.024035303 -0.04233121 -0.029358055 0.0042769643
000070 ec 20 71 bc e8 5f 0d bd df 45 27 3c 2d 8b 19 bb
       -0.014717322 -0.03451529 0.01020953 -0.0023428902
000080 b9 bc 79 bb c9 07 af 3c 08 52 c3 bb 9a f0 53 3c
       -0.0038106872 0.021366017 -0.0059607066 0.012935782
000090 34 34 09 bd b0 6a b6 bd b6 79 da ba 2a 7e d0 3c
       -0.03349705 -0.08907068 -0.0016668353 0.025450785
0000a0 cb 58 2f bd ab 73 18 bc 48 61 96 bb 0a 01 8f bc
       -0.04280929 -0.009304921 -0.0045892335 -0.01745655
0000b0 4a 25 a6 bc c1 1f 89 bc c8 33 3f bc 2c 3b 94 bc
       -0.020281453 -0.016738774 -0.01167006 -0.018094622
0000c0 f4 7d 82 3c 79 eb 8a 3b d7 d6 d5 bc 1f e3 c1 3c
       0.0159292 0.0042394963 -0.02610342 0.02366787
0000d0 43 31 2d bc 18 f6 3e 3c b9 8f 92 bc b1 00 d5 bc
       -0.010570827 0.011655353 -0.017890798 -0.026001306
0000e0 28 aa f5 bc d7 59 8f bc 5d 34 bd bd 90 df 0a bd
       -0.029988363 -0.017498894 -0.09238503 -0.033904612
0000f0 da 1a a6 bc 84 60 c9 bb 2e 08 cb bc f9 cd ac bc
       -0.020276476 -0.0061455388 -0.024784174 -0.02109431
000100 c7 09 84 bc 3a f3 ea 3b dd 61 15 bc 70 e8 13 bd
       -0.016117943 0.007170108 -0.009117571 -0.03611034
000110 0a 9e c0 bc ac 13 53 bc 1d 60 c3 3b 03 4b 97 3c
       -0.023512859 -0.012883108 0.0059623853 0.018468386
000120 bb 40 9b 3c ea 79 19 3c 80 d9 98 bc 1d bf f3 3b
       0.018951764 0.0093674455 -0.0186584 0.007438554
000130 35 10 1e bd ec c9 3f 3b 89 d7 a7 bc af eb 91 3c
       -0.038589675 0.0029264642 -0.020488517 0.017812578
000140 4c 17 1b bd f3 29 e0 3b e7 27 dd bc 31 bb 4b bd
       -0.037864015 0.0068409382 -0.026996566 -0.049739067
000150 c2 c3 a9 3c 5f 96 dd 3c e8 25 80 bb 0a d6 fa bc
       0.020723227 0.027049242 -0.003910769 -0.03061964
000160 df 06 9f bb 0d 2a 90 bc cc 9c d3 3c 47 27 84 bd
       -0.004853114 -0.017598176 0.025831603 -0.06452804
000170 ea 06 be 3c ba a7 5e 3b 98 3f 83 bb d4 a5 08 bd
       0.023196656 0.0033974485 -0.0040053837 -0.03336127
000180 a3 f6 82 bc 95 0c a8 bd fb 6a 16 bc 03 8e ab bc
       -0.015986746 -0.08205525 -0.00918078 -0.02094174
000190 75 2f 6d bb 0c f9 15 bd f3 9e 47 bc f7 ef 30 3c
       -0.0036191617 -0.036614463 -0.012183893 0.0107994
0001a0 60 04 b5 3a 19 22 80 3b 39 44 68 bc 65 03 89 ba
       0.0013810508 0.0039103148 -0.014176422 -0.0010453282
0001b0 fc a2 c2 bc 81 36 87 bc 0b 79 08 bb fc 24 47 bd
       -0.023759358 -0.016505482 -0.00208241 -0.048619255
0001c0 74 3a a5 bc 79 5e 72 bb 58 ea 39 3c 2d 14 b7 3b
       -0.020169474 -0.003698258 0.011347376 0.005587122
0001d0 85 67 89 bc 3a 14 fb bb 5a dc 65 bc d0 e5 37 3c
       -0.016772995 -0.0076623233 -0.014029587 0.011224225
0001e0 cf b8 dc bc 95 d2 8a bc 96 56 dd 3b 27 69 f1 bb
       -0.026943592 -0.016946116 0.0067547066 -0.0073672715
0001f0 79 4b 8e bb e2 40 94 bc 64 c6 c1 bb 31 bc 5f 3c
       -0.004342493 -0.018097345 -0.0059135426 0.013655708

8.weight f4 [128, 128]
000000 8d b1 2f 3e 4a 6f 2c 3e 3f d8 ef bc 6e 37 30 3d
       0.17157574 0.16839328 -0.029277919 0.043021612
000010 5c 94 c7 3d 2a c7 27 3e 48 ca 0f bd 5f 04 80 3e
       0.09745094 0.16384569 -0.03510502 0.25003335
000020 2c f6 16 3e f9 23 a6 3e 50 d9 eb bd 75 db c8 3d
       0.14742345 0.3244932 -0.115160584 0.09807483
000030 19 aa cd 3d 77 fc 32 3e 71 d5 88 3d 2a e7 bd 3d
       0.10042209 0.1747912 0.06681336 0.09272607
000040 75 0d 95 3c 3c 6f 7d 3e 94 6a 35 3e ef 15 b0 3e
       0.018194893 0.24749464 0.17716438 0.34391734
000050 76 22 0a bd ca 5a a3 bc 40 ab 0a be 16 c0 62 bd
       -0.03372427 -0.019940753 -0.13541889 -0.05535897
000060 d9 11 9c bd 3c 9c 96 3c c9 9f 4c 3d 12 11 9a 3d
       -0.07620592 0.018385045 0.04995707 0.07522787
000070 33 cd d6 3e 40 5f 10 3e 47 18 97 3e 96 0d 44 3e
       0.4195343 0.14098835 0.2951071 0.19145808
000080 8e 02 ea 3d 69 4f 54 bd 72 28 e1 bd 03 0b dd be
       0.114262685 -0.051833544 -0.109940425 -0.43172464
000090 70 a5 9a bd ce 85 82 3d 19 87 70 bc e2 24 ec 3d
       -0.07551086 0.063731775 -0.014680647 0.11530472
0000a0 9f a0 5d bc 0b 10 01 be 53 3f 13 3e 6f bd a9 bc
       -0.013527065 -0.12603776 0.14379625 -0.020720212
0000b0 03 89 1b 3b c4 7b e3 3d 5a 83 b4 bd c7 3d a8 3d
       0.0023732788 0.11107591 -0.08814116 0.08214908
0000c0 30 8a 08 3e 16 db f2 bc 07 bf 01 be 4b 3e 25 be
       0.13333964 -0.029645484 -0.12670527 -0.16137044
0000d0 0e 14 8a 3d b1 4b 9c 3e 86 b8 d0 bc 20 20 06 bd
       0.067421064 0.30526498 -0.025478613 -0.03274548
0000e0 a1 9c 18 be a2 cf 9b 3e ca 07 2d be 61 5f 62 3d
       -0.14903499 0.3043185 -0.16897503 0.05526674
0000f0 80 c2 3a 3c a0 ef f5 bd 37 21 e4 bc 29 16 2e 3d
       0.0113989115 -0.120085955 -0.02784787 0.042501602
000100 14 5b f3 3d 8c e0 82 bd c2 25 a0 bd 27 71 1c 3d
       0.11882606 -0.06390485 -0.07819702 0.038193848
000110 2e 7f 03 be 81 63 3a bd 9c e2 47 be 47 fc df bb
       -0.12841484 -0.04550505 -0.19520038 -0.0068354937
000120 2b cd f8 bd ac 87 3d 3e cc 71 4b 3d 9b 4e 01 3e
       -0.12148508 0.18508786 0.049669072 0.12627642
000130 1e 18 4b bd da a7 39 3e 83 92 96 3e 18 d5 00 be
       -0.049583547 0.18130437 0.29408655 -0.12581289
000140 a1 79 b2 3b a9 21 95 be 68 c2 45 be 42 7d d2 bd
       0.005446628 -0.29127243 -0.19312441 -0.10277797
000150 0b 74 9b bd 66 45 1b 3e 74 18 1d bc d6 70 85 3e
       -0.07590493 0.15163192 -0.00958835 0.2606265
000160 f7 71 74 3d 70 30 fc 3d 93 6f 81 3d c8 22 3d 3e
       0.059678998 0.12313926 0.06320109 0.18470299
000170 47 a1 01 3e 1a e1 67 bd 6b 40 7b 3e 4c 0f c7 bd
       0.12659179 -0.056611158 0.24536292 -0.097197145
000180 f6 35 e3 bd 0c a3 a4 bd 95 98 a6 3b d1 8c b8 3d
       -0.110942766 -0.08038911 0.005084107 0.090112336
000190 d8 77 c0 bb 34 d5 af bd 63 80 87 bd dc 79 95 3e
       -0.0058736615 -0.08585587 -0.06616285 0.29194534
0001a0 74 87 0e 3e 88 5c 78 bd fb a7 11 3e 90 d0 dc 3d
       0.13918859 -0.06063512 0.14224236 0.10781968
0001b0 48 27 5e 3e 90 90 1d 3f b1 a9 80 bd f6 a7 5f 3d
       0.21694672 0.6154871 -0.06282366 0.05460354
0001c0 ee cb a1 3c ce 93 8a 3d 54 10 8c be b8 33 d4 3e
       0.019750562 0.06766473 -0.27356207 0.41445708
0001d0 35 06 6a 3c 1c db 8b 3e e3 03 b4 3c 9f 50 c1 bd
       0.014283706 0.27315605 0.02197451 -0.094392054
0001e0 f9 38 d9 3d 67 8b 18 3d 7c 43 49 be 97 6d b2 3c
       0.1060657 0.03724232 -0.1965465 0.021780772
0001f0 ef 5c 9a 3e f7 72 81 bb 69 50 e4 3e 46 88 64 3d
       0.30149028 -0.0039504725 0.44592598 0.055794023
000200 0a 46 c4 bb 24 94 ca 3d b6 32 90 bd 68 18 ca 3d
       -0.0059897946 0.09891537 -0.07040922 0.098679364
000210 86 53 0b bd dc 5f af bc f1 cf 06 be de 83 95 bc
       -0.0340152 -0.021408014 -0.13165261 -0.018251356
000220 88 da b1 3d 28 b4 09 3e 20 84 b8 bd a5 97 cb 3d
       0.0868426 0.1344763 -0.09009576 0.09941033
000230 3e 87 90 bd 23 a6 e2 3d af 14 85 3d 45 b3 87 3d
       -0.070570454 0.11066844 0.06498086 0.0662599
000240 24 4a c1 3d 44 63 fd 3d 25 77 de 3b 4d 63 1c bc
       0.09437969 0.12372449 0.0067891055 -0.0095451595
000250 85 6b 10 bd c1 e9 7c 3c cb 62 8d bd f5 6c 0e 3e
       -0.03525879 0.015436591 -0.06903609 0.13908751
000260 c4 84 a1 bd d9 a6 15 bd a6 a2 21 3d 43 9b 54 bd
       -0.07886651 -0.03653607 0.039461754 -0.05190588
000270 20 23 59 bc b7 c7 ec bc 3e 78 73 3d d9 5e ec bd
       -0.013253003 -0.028903825 0.059440844 -0.11541528
000280 a7 f1 de bc 33 56 68 3d 99 80 70 3d a4 c8 9d bc
       -0.027214838 0.05672283 0.05871639 -0.019260712
000290 44 ab c2 bd 9d f6 af 3d 2c ce a3 3d d0 e7 9e bd
       -0.095053226 0.085919596 0.079983085 -0.077590585
0002a0 92 71 ec 3d 74 e9 c3 bd 59 0d e7 bd b5 47 22 3e
       0.11545099 -0.09566012 -0.11281843 0.15847667
0002b0 c8 4d 3d bd 1d 22 15 3e 5f 5d 0c be 8b 28 17 bb
       -0.046216756 0.14563794 -0.13707493 -0.0023064937
0002c0 1a 3d eb bd c3 75 0e be c4 d8 cc 3c 62 b1 fb bd
       -0.114862636 -0.1391211 0.025005706 -0.122896925
0002d0 91 bf b4 3b de af a9 bd 8e aa 12 be f1 3c 05 3e
       0.0055160006 -0.08285497 -0.14322874 0.13011529
0002e0 1b 86 03 bd fc 20 11 bc a7 e8 b4 bd ee b8 7e b9
       -0.032110315 -0.008857962 -0.088334374 -0.0002429222
0002f0 60 70 e4 3d d6 12 fe bd e0 6e a5 bd 04 8e 93 bc
       0.11154246 -0.124059364 -0.08077788 -0.018012054
000300 a6 0e e7 bd 6c c8 30 be f6 e3 b0 3c eb cc 90 ba
       -0.11282091 -0.17263955 0.021593075 -0.0011047398
000310 6c 18 74 bd e8 0d 90 bc 6b c6 c2 bd 14 91 79 3d
       -0.059593603 -0.017584756 -0.095105015 0.060929373
000320 27 39 f3 3d db a8 1d be c9 c9 4a 3d 51 75 95 bd
       0.11876135 -0.15396444 0.049508844 -0.07297767
000330 65 40 85 bc 28 ed 86 bd 2f fb ce bd 23 b1 1b bd
       -0.016266057 -0.06588203 -0.10106503 -0.038010728
000340 b6 e1 29 3c 6b e8 82 3d 90 88 1a 3d c2 c0 fb bc
       0.010368755 0.063919865 0.037727892 -0.030731563
000350 62 6e 50 3d 6b a8 04 3e c0 35 dd bd c4 a8 cd bd
       0.05088652 0.12954871 -0.108012676 -0.10041955
000360 b1 c6 91 3d be e0 17 be 53 de e2 bc f6 06 c3 bd
       0.071179755 -0.14831826 -0.027693903 -0.09522812
000370 09 d2 1c be 23 4c b4 3d 5f 83 08 be 74 f6 e9 3d
       -0.15314497 0.088035844 -0.13331364 0.1142396
000380 b2 7d 79 bd 91 8f a0 bd e2 2c 96 bd 33 61 84 3d
       -0.060910888 -0.07839883 -0.073327795 0.06463852
000390 02 8c 9c bd 06 bb 0b 3e a6 f7 f6 3d c2 f3 55 bd
       -0.07643892 0.13645563 0.12058954 -0.05223442
0003a0 2d 8f ca bd e4 34 81 bd 9a 26 a0 3d aa 63 0a be
       -0.0989059 -0.06308916 0.07819863 -0.13514581
0003b0 4b 98 11 3d 6c e5 94 bd 5a 69 f2 3d 03 c1 37 be
       0.03554563 -0.07270321 0.118365005 -0.17944722
0003c0 8e fa 7f 3d 27 cb a1 3d b7 99 d3 bd 9a 18 77 3d
       0.062494807 0.07900076 -0.10332053 0.060326196
0003d0 2d ec a6 bd 09 ff 55 3d 20 5b 84 3d f7 7b ed bd
       -0.08150516 0.052245174 0.06462693 -0.1159591
0003e0 b9 30 b0 3d 5f f4 ea bd 61 f5 08 bd 68 82 ce 3c
       0.08603043 -0.11472391 -0.033437137 0.025208667
0003f0 fd a9 fa bd 92 42 25 bb 43 4b 87 bd 83 27 fd 3c
       -0.12239454 -0.002521668 -0.06606152 0.03090263
