pre_trained_model/model_rho_new.onnx (onnx, 1661 bytes, 4 tensors)

0.weight f4 [16, 16]
00000000: 4ad2 08be 962b 4dbe 0f6a 993e d0d8 8b3e
00000010: 74b2 11be b484 d6be 216f fdbd ecd3 86be
00000020: 819c aa3e fbd9 c1be 32ff 3dbd 7b53 7cbd
00000030: fa59 97be b37c 533e 649d 16be e3b6 90bd
00000040: c704 91be f11a b5bd cc1a c63e 54a0 193e
00000050: 94d4 83bd 34b4 bcbe a884 ab3e c816 7fbe
00000060: defd 0b3d 3714 cf3e 6c92 d5be 3096 61be
00000070: a067 02be 5fb9 c8be b837 eb3d f3f2 b23e
00000080: c366 67be bea4 9e3e 6a2a 10be e98c bfbe
00000090: 004c e03d a5e6 7abd 032a 093f 2647 a43e
000000a0: 06a1 8e3e e623 a83e 7043 aabe 4281 b7be
000000b0: aac2 58be 05b7 dc3c d2de 85be ab76 00be
000000c0: 8360 45be ed3e 80bc 889f 173e 9b23 823d
000000d0: 6a95 03be 925f ee3d 5ee0 1ebf 3f37 1b3e
000000e0: f78e 7e3d d592 853e e6ca 043e 8f88 323e
000000f0: 36ea aebe 6a9f d13e 1e61 92be 3cb7 52be
00000100: 46e6 243e 5080 5d3d 7e10 db3d 517b 1cbe
00000110: 66ed 83be 9c5e bbbe ed7c ed3d 9445 0e3e
00000120: 2050 c7bd 1ae5 dabe 537f 693d 7f36 453e
00000130: f682 82bc 3d18 b53e e64b 463d a4e8 243e
00000140: d44f b8be 845b d7be 0650 a83e a4a4 9dbe
00000150: e491 ffbd f5ee 933e 6941 bf3e d225 84be
00000160: 0957 603d 8833 cb3c 7a59 9dbe 5d05 e73b
00000170: 16fc 6bbe 71a9 a0bd 9461 c23e 9044 9dbe
00000180: f8a3 a7be a815 0f3e a10e ac3d 1c71 c7be
00000190: 1e19 cd3e 5055 a73d 11c4 9e3e 4bd8 b7bd
000001a0: 7896 603d e01c c63e 3b9f b7bd 2639 cabd
000001b0: c302 b33e 1272 963d b6dc 5c3e 4aca 5e3d
000001c0: 86da 36be 9162 49be 91a8 dabe 786d 3d3d
000001d0: 0620 1bbe 1994 913e 169c 193f 8a6f ca3e
000001e0: 18e5 58be c46a babb 29de a03e 1bd5 65be
000001f0: dc84 e83d bc53 babd 452d 71bd d363 293e
00000200: 2d96 9dbe 9401 103e 8f66 553e b18d 78be
00000210: f49d 0e3e c086 183d 9bfc 903e a46b 613d
00000220: 2bf0 a43e f0f2 74be 11bd a83e 8e13 5a3e
00000230: 18c0 dc3c 3ad0 973e 0e70 103e d380 043e
00000240: 3955 19be 9fc3 fdbd b51e 683e 891a 91be
00000250: d510 693e 7c81 24be bb8a 14be b92c 5b3e
00000260: 0eb6 463e e6fc 8abd 67a1 1c3e d3d0 873e
00000270: 67e9 23be df92 89bc ad72 773e 4cb0 77be
00000280: fc09 89bd 9ca5 35be fda1 c13e 7038 3a3d
00000290: 0fc6 1d3e a4ee 22be 5968 553e 05c6 57be
000002a0: 53aa 6ebe 6638 ecbc af09 cfbe 67b3 cbbe
000002b0: 5ae7 93be 3b3c 7abd c45d aa3d f261 91bd
000002c0: 04d0 dcbe 99ed d5be 3168 b6be a4e3 3abe
000002d0: e775 94be 9fa4 a0bd c577 19be b477 74bd
000002e0: bce6 be3e cc71 933d 4e29 12be 0e6a c43d
000002f0: b573 013d c71e 7abd 654d 103c 8ffb 4bbe
00000300: d1d6 67be a769 20be 3a90 883d b264 5bbe
00000310: 6159 17be 7f04 f7bd d5c1 843e e299 7ebe
00000320: 6640 4d3e f11c 543e bcfa 00bc 8c3e 2c3b
00000330: c647 1c3b ad3a fe3b a506 993e 6beb 51be
00000340: 6cdf 7b3a 99f2 943e 97f3 94bd b0b9 9fbe
00000350: c20b 38be ccac e33e c9fc b53e 2766 553d
00000360: 73e5 753e 90a3 a5be 7c27 873e feb1 36be
00000370: f121 d3be 4f56 47be 9a96 a6be cbad 063e
00000380: b20c a4be f971 8f3e b497 b83e 5091 95be
00000390: 4f4c 8ebe 27e0 953d d838 d23d ba17 06be
000003a0: 516c 64bd dbe1 babe 357c 72be 44bc 533e
000003b0: a66b fc3d 09a8 0cbc c456 ed3d 15a3 95be
000003c0: 355a d9be c54b 77be 0684 96bd a19a c23e
000003d0: 7f09 ad3e e1ce 403d d965 07bf b051 0bbe
000003e0: 92ed 33be 161a 783e 2e1d e73b 7604 30be
000003f0: 0a3d 713c 06e8 7e3e 85a5 143e 4d04 c5be
-0.13361469 -0.20036158 0.2996373 0.27313852 -0.1422823 -0.4189812 -0.12374712 -0.2633356
0.33322528 -0.37861618 -0.04638595 -0.06160305 -0.29560834 0.20653038 -0.14708477 -0.07066133
-0.28323957 -0.08843029 0.3869232 0.15002567 -0.064370304 -0.36856234 0.33499646 -0.24911034
0.034177653 0.4044511 -0.41713274 -0.22029948 -0.12734842 -0.39203927 0.11485237 0.3495098
-0.22597794 0.30985063 -0.1407868 -0.37412193 0.10951996 -0.061255116 0.5357973 0.32085532
0.27857226 0.32839888 -0.33254576 -0.35840803 -0.21168008 0.02694274 -0.2614656 -0.12545268
-0.19275098 -0.015655005 0.1480695 0.063544475 -0.12849966 0.11639322 -0.6206111 0.15157793
0.06214806 0.26088586 0.12968025 0.17434905 -0.34163064 0.40941936 -0.2858972 -0.20577711
0.16103467 0.054077446 0.10696505 -0.15281416 -0.25767058 -0.3659562 0.11596093 0.1389373
-0.097320795 -0.42752916 0.05700619 0.1925907 -0.015931588 0.35370055 0.048412226 0.1610437
-0.35998404 -0.42062008 0.32873553 -0.30789673 -0.12478998 0.28893247 0.3735459 -0.25810105
0.054770503 0.024804845 -0.30732328 0.0070502 -0.23045382 -0.078448184 0.3796507 -0.30716372
-0.32742286 0.13973105 0.08401228 -0.38953483 0.40058225 0.08170569 0.31008962 -0.089768015
0.054831 0.38693905 -0.08965918 -0.098741814 0.34963045 0.07345976 0.2156857 0.054392137
-0.17856798 -0.19666506 -0.4270673 0.046246976 -0.15148935 0.28433302 0.60003793 0.39538223
-0.21181142 -0.005688997 0.31419495 -0.22444575 0.11353466 -0.09098002 -0.058881063 0.16541986
-0.30778638 0.14063102 0.20839904 -0.24272801 0.13927442 0.037237883 0.28317723 0.055034295
0.32214484 -0.23920798 0.32956746 0.21296522 0.026947066 0.29651052 0.14105245 0.12939768
-0.14973916 -0.123908274 0.22667964 -0.28340557 0.22760327 -0.1606502 -0.14506046 0.21403779
0.19405386 -0.06786518 0.15295945 0.26526508 -0.16007005 -0.016793666 0.24164839 -0.24188346
-0.066913575 -0.17738956 0.378189 0.04546398 0.15407585 -0.15911347 0.20840587 -0.21071632
-0.23307161 -0.028835487 -0.40437075 -0.3978531 -0.28887445 -0.061092597 0.083186656 -0.0709876
-0.43127453 -0.41782835 -0.35626367 -0.182509 -0.28996202 -0.07843899 -0.14987095 -0.05968447
0.3728541 0.071994394 -0.14273569 0.09590541 0.031604487 -0.061064508 0.008807515 -0.1992018
-0.2264054 -0.15665303 0.06668134 -0.21425131 -0.14780189 -0.120614044 0.25929132 -0.24863389
0.20044097 0.20714165 -0.00787228 0.0026282398 0.0023846491 0.0077584595 0.29887882 -0.20499961
0.00096081826 0.29091337 -0.072730236 -0.31196356 -0.17973235 0.4446777 0.35544422 0.052099373
0.24013309 -0.3235135 0.26397312 -0.17841336 -0.41236833 -0.19466518 -0.32536775 0.13152234
-0.32040936 0.28016642 0.3605324 -0.29212427 -0.27792594 0.07318144 0.10264748 -0.13094988
-0.05576736 -0.3650044 -0.23680194 0.20677286 0.1232522 -0.008584985 0.11588815 -0.29225984
-0.42451635 -0.24149998 -0.073494 0.38008597 0.33796307 0.047072295 -0.5288978 -0.1360538
-0.17571095 0.24228701 0.007053039 -0.17189202 0.0147240255 0.24893197 0.14516266 -0.38479844

0.bias f4 [16]
00000000: 8bbc 25bd a439 03bc de79 ac3f dbd4 5e3e
00000010: 599b 96bb 953a 3c3f a1b3 54bd 36e1 f3bc
00000020: 6fdc 693f 61c0 2fbc 4e75 cc3e 0000 0000
00000030: 0000 0000 31c4 b1be 44b6 893a 597c 483e
-0.04046301 -0.008009348 1.3474691 0.21760885 -0.0045961556 0.7352689 -0.05192912 -0.029770475
0.9135198 -0.010727019 0.39933246 0.0 0.0 -0.34719995 0.001050659 0.19578685

2.weight f4 [2, 16]
00000000: d34b 0abf 99a5 0cbf 35df 093e c5e6 6e3e
00000010: f1a6 f33e 2ea1 f8be 454d efbe bb02 493f
00000020: 639c efbd 2c9c 53be d4d7 96bc d3b8 09bf
00000030: 2b79 e1bc 1972 a53f e24d 033d e5e2 57be
00000040: c44f 753d 7489 25be a1ad 1e40 28b4 003f
00000050: 1535 a6be 02a5 b43f 66a8 bcbe 883f 10be
00000060: 5e8a 90c0 864c bbbe b134 4d3f 9ebc d13e
00000070: c72b 04bf 47e7 4abe d1ce 643e c7de 073f
-0.5402195 -0.5494018 0.13464053 0.23330219 0.47588304 -0.4856047 -0.4673864 0.7851979
-0.1169975 -0.20665044 -0.018413462 -0.53797644 -0.027523598 1.2925445 0.032056697 -0.21082647
0.059890524 -0.16165715 2.4793475 0.50274897 -0.32462373 1.4112856 -0.36847228 -0.14086735
-4.5168905 -0.3658182 0.80158526 0.40964216 -0.516293 -0.19814788 0.22344519 0.53074306

2.bias f4 [2]
00000000: 9a13 1440 c281 603e
2.3136964 0.21924499
