pre_trained_model/model_rho_singleoutputnn_100.onnx (onnx, 1515 bytes, 5 tensors)

0.weight f4 [8, 16]
000000 38 2f a0 3d ed 9c 80 3e b2 29 6c be f8 ea 7e 3e
       0.07821506 0.25119725 -0.2306278 0.24894321
000010 ed 67 af 3e bf 4a 12 be a9 ac 16 3e 54 d2 cb 3e
       0.34258977 -0.14286326 0.14714302 0.39808905
000020 db 59 92 be 64 1d 65 be a1 d7 d1 3c 9f d1 f8 be
       -0.2858418 -0.22374493 0.025615515 -0.48597428
000030 56 73 ec be 9c e5 0f be 8e 73 f3 3e f4 8f d9 3e
       -0.46181744 -0.14052433 0.475491 0.4249264
000040 0c 00 5c 3e 8e cb 17 be 4e 0e c2 3e 0f 9c f9 3e
       0.21484393 -0.14823744 0.3790154 0.48751876
000050 be b2 aa bd 20 fb bf be cb 66 f9 bd 5f 08 f4 3e
       -0.083348736 -0.3749628 -0.12177809 0.47662637
000060 d0 1e 89 be fc 34 1b be 03 41 c8 be 3a 0e 23 3b
       -0.2678132 -0.1515693 -0.391121 0.0024880306
000070 56 e1 da be 82 31 a9 be 59 17 d2 3e 01 cf 91 3d
       -0.42750043 -0.33045584 0.41033438 0.07119561
000080 3a 98 92 3e 17 f9 d4 be d8 9c ed 3d 48 8f 64 be
       0.28631765 -0.4159629 0.11602181 -0.22320282
000090 e4 19 fc 3e dd fe 5c 3e eb cd c8 3e 52 a3 88 be
       0.49238503 0.21581598 0.39219603 -0.26687104
0000a0 92 32 cf bd a8 bf 7c be 7c f1 ca 3e 56 55 3d bc
       -0.101170674 -0.24682486 0.39637363 -0.01155599
0000b0 57 3b 05 be 6c ad e3 3e 04 da 66 be 9a 55 d0 bd
       -0.13010918 0.44468248 -0.22544104 -0.10172577
0000c0 fc eb d0 be 2c 4f 88 3e ec 19 b4 be 00 b1 38 3c
       -0.40805042 0.26622903 -0.35176027 0.011272669
0000d0 d8 13 37 3e 7c a8 80 be 2e 13 a5 be d4 e0 78 be
       0.17878664 -0.25128543 -0.32241195 -0.24304515
0000e0 a4 1f 67 be c0 94 44 3e 44 20 66 3e 78 fa 2e 3e
       -0.22570664 0.19197369 0.22473246 0.17087734
0000f0 98 9b 10 be cc 3f 64 be 94 75 25 3e d8 f5 cf be
       -0.14121854 -0.22289962 0.16158134 -0.4061725
000100 9c c3 14 be 07 1f 8b be da 8c f8 3e 8b 55 c6 3e
       -0.14527744 -0.2717211 0.4854496 0.3873714
000110 34 61 97 be 4c fb eb be 8a e2 20 be 8f 79 fb bd
       -0.29566348 -0.46090162 -0.15711418 -0.12279045
000120 92 25 bf 3e d8 bb de 3e 6f ac ad 3e 3f f7 43 3d
       0.3733335 0.43502688 0.3392062 0.047843214
000130 df 02 72 3e ee 29 eb 3e 44 a1 a1 bd dd 1e 0d be
       0.23633908 0.45930427 -0.07892087 -0.13781305
000140 48 71 2b be df ff f7 bd 04 3f e8 be b1 ce fb 3e
       -0.16742432 -0.121093504 -0.45360577 0.4918113
000150 07 5f d7 3e ae 4d ee 3e 66 3c 8b 3e bb a5 8f be
       0.42064688 0.4654364 0.27194518 -0.2805613
000160 84 2a 80 be 1d a5 6c be 76 1b 71 bd be 88 07 bd
       -0.25032437 -0.2310986 -0.05886408 -0.033089392
000170 b2 3c bc 3e d1 8c e6 3c fe 6c f4 3e df 84 be bd
       0.36765057 0.028143318 0.47739404 -0.09302687
000180 08 e5 c1 be 1a 6d 8f be 50 be b1 3d ac af d2 3e
       -0.3787005 -0.28012925 0.08678877 0.41149652
000190 14 17 d6 3e 18 4f 04 be cf d7 c8 bd 9f e4 55 3e
       0.41814482 -0.12920797 -0.09806787 0.20887993
0001a0 08 11 85 3e e5 c0 eb be c9 27 70 be 80 91 97 bd
       0.25989556 -0.46045604 -0.23452677 -0.07400799
0001b0 b4 c2 d3 3e f8 7d dd be 1b 9e 85 be 2f 8c 05 3e
       0.41359484 -0.4326017 -0.26097187 0.13041757
0001c0 64 2e 7d 3e ea 07 89 3e 87 3c 12 3e 9a 26 a8 be
       0.24724728 0.2676385 0.14280902 -0.3284195
0001d0 b9 15 7d 3e 34 75 e6 3d 8a 18 ca 3e 10 7d e5 be
       0.24715318 0.112528235 0.39471847 -0.44821978
0001e0 f8 fe 94 bd c0 31 62 be aa c9 c3 be e0 1c ea 3d
       -0.07275194 -0.2208929 -0.38239795 0.11431289
0001f0 5e 51 a0 3e 5d 3b eb be 79 41 c5 3e 1e 63 34 be
       0.31312078 -0.45943728 0.38526514 -0.17615935

0.bias f4 [8]
000000 03 7b 9f 3b a9 c9 b8 3b 45 72 9f 3b 00 00 00 00
       0.004866959 0.005639274 0.004865917 0.0
000010 bd c1 aa ba 9f 38 a0 3b 59 0b b4 ba c0 3c f1 bb
       -0.0013027709 0.0048895623 -0.0013736292 -0.0073619783

2.weight f4 [8, 8]
000000 f0 40 99 3e 16 5e 0f 3f fd 95 f8 3e c3 93 89 3e
       0.29932356 0.5600294 0.48551932 0.26870546
000010 a6 9e fe 3e 54 f9 9f be 54 3a 4a 3d c5 b2 ec be
       0.49730414 -0.3124491 0.049372032 -0.4623014
000020 b1 31 8a 3e 54 dc da 3e 6d a4 38 bb e7 57 a5 3e
       0.26991037 0.42746222 -0.0028174177 0.32293627
000030 f7 24 2d 3e ed 7a bc 3e 34 25 17 bf 23 98 df be
       0.16908632 0.36812535 -0.5904114 -0.4367076
000040 37 ac 20 be ff 7e 88 be a3 b9 ae 3d f4 5b f4 be
       -0.15690695 -0.2665939 0.08531501 -0.47726405
000050 3f b8 3c be cb 8a ba bd 3d 54 0e be 5c ae a3 3e
       -0.1842966 -0.09108504 -0.13899322 0.31968963
000060 20 23 0c 3f a0 18 d2 be b9 b9 c6 3b ae a9 53 be
       0.54741096 -0.41034412 0.0060646203 -0.20670196
000070 f0 77 ec 3e e6 8a cb 3e 4d 21 20 3c 05 44 48 3e
       0.46185255 0.3975441 0.0097735645 0.19557197
000080 0b 9b 15 3f 22 2f de be 62 fa 0c 3f 44 95 5b be
       0.584397 -0.43395334 0.55069554 -0.21443659
000090 7f a4 74 3d 12 98 8a 3e f3 be 61 be 90 1e ff 3d
       0.05972719 0.27069145 -0.22045498 0.12457001
0000a0 8b a9 08 3f 2e eb c1 be 5e f1 1b 3f ad db 19 bf
       0.533837 -0.3787474 0.6091517 -0.60100824
0000b0 a1 f8 01 bf 83 a3 6f 3e 05 2d 8c 3d 52 c4 ee be
       -0.5077 0.23402219 0.06844524 -0.46634156
0000c0 5e f8 b4 be d4 3c 49 be 8b 53 e1 be cc da 90 3e
       -0.3534574 -0.1965211 -0.4400905 0.2829193
0000d0 36 b5 13 bf e9 8b 46 bd d7 e1 73 3e 4f e6 12 3f
       -0.5769838 -0.048473272 0.2381662 0.57382673
0000e0 00 c6 77 be bb 8e ce be 66 ed ae 3e 4c 8f 15 3f
       -0.24196625 -0.4034327 0.34165496 0.5842178
0000f0 e7 90 c3 3e bc 77 78 3e 41 3f 0d 3e 4a 2a 0f 3f
       0.3819649 0.24264425 0.1379366 0.55923903

2.bias f4 [8]
000000 f7 68 a0 3b 00 75 9a 3b 00 00 00 00 01 58 9a bb
       0.0048953253 0.0047136545 0.0 -0.004710198
000010 e1 71 9a 3b 3a 31 9f 3b 00 00 00 00 03 66 af 3b
       0.0047132825 0.004858163 0.0 0.005352737

4.weight f4 [1, 8]
000000 5f 41 b2 3d 40 51 28 3f c1 f7 30 3f be 05 37 bf
       0.08703875 0.6574898 0.6912804 -0.71493137
000010 1c 91 20 3f 27 04 11 3f 43 55 c3 3d 60 7e de 3b
       0.6272142 0.5664696 0.09537747 0.0067899674
