pre_trained_model/model_rho.onnx (onnx, 1661 bytes, 4 tensors)

0.weight f4 [16, 16]
0	0x3e9a0478	0.30081534
1	0x3e026b27	0.12736188
2	0xbe77c4e7	-0.24196206
3	0x3ed40372	0.4140888
4	0x3da0f3a8	0.07858974
5	0xbe9e50f0	-0.30921125
6	0x3e4f51b9	0.20246018
7	0x3ebed38b	0.3727077
8	0xbecb7fec	-0.39746034
9	0xbe52d863	-0.20590357
10	0xbe9271f2	-0.28602558
11	0x3ed3fe5e	0.41405004
12	0x3d691e72	0.0569138
13	0x3e70fc19	0.23533668
14	0x3dea1dda	0.11431475
15	0xbdfbc9ce	-0.122943506
16	0xbef582a5	-0.47951236
17	0xbc04f85e	-0.008115856
18	0x3eddd3a8	0.43325543
19	0x3e815c53	0.2526575
20	0x3d5fb0e3	0.05461205
21	0xbff1e78e	-1.889879
22	0xbe040b07	-0.12894832
23	0x3e2d4d3d	0.16923995
24	0x3e5150a7	0.20440923
25	0xbdf8c588	-0.12147051
26	0xbda0ef03	-0.07858088
27	0x3e52e000	0.20593262
28	0xbcb29f19	-0.02180438
29	0xbe1b579b	-0.15170138
30	0xbe6bdbfc	-0.23033136
31	0xbbc9491b	-0.006142748
32	0x3e623ea2	0.22094205
33	0xbecda2cf	-0.40163276
34	0x3e7fd328	0.24982893
35	0x3e25ebc6	0.16203222
36	0x3d6478d8	0.055779308
37	0x3ebe5f3d	0.37182036
38	0xbe588191	-0.21143176
39	0x3e60aaf6	0.21940216
40	0x3e067620	0.13130999
41	0x3e3f3e06	0.18676004
42	0x3eba1b39	0.36348894
43	0xbed3f97a	-0.41401273
44	0x3dd38b69	0.10329325
45	0x3eac7ece	0.33690494
46	0xbed5f881	-0.41791156
47	0xbe9ee8c5	-0.31036964
48	0x3e8fab33	0.28060302
49	0x3e842e35	0.25816503
50	0xbecbda28	-0.39814878
51	0xbeac8c77	-0.33700916
52	0xbe222c3c	-0.15837187
53	0x3eff51fd	0.4986724
54	0x3bf536e2	0.007483349
55	0x3ee0e55d	0.4392499
56	0x3e4efbee	0.20213291
57	0xbea6982d	-0.32537976
58	0x3e57c611	0.2107165
59	0x3ec9c49a	0.39407808
60	0xbe8d24fc	-0.2756728
61	0xbe5addee	-0.21373722
62	0xbbdee76a	-0.006802489
63	0xbea3a31c	-0.3196038
64	0xbe27f9cd	-0.16403885
65	0xbe41ebe7	-0.18937646
66	0xbe5112b1	-0.20417286
67	0x3e6feaec	0.2342946
68	0xbe73e493	-0.23817663
69	0xbbbe181d	-0.0058012144
70	0x3d7bb784	0.06145431
71	0x3e153370	0.14570403
72	0xbe178eec	-0.14800614
73	0x3e3c06f4	0.18362027
74	0x3bc3a97a	0.005971131
75	0xbe973eac	-0.29540002
76	0xbdd6c844	-0.104874164
77	0xbce73ef1	-0.028228255
78	0xbec56d51	-0.38559964
79	0x3e7b4c45	0.24540813
80	0xbec7b180	-0.3900261
81	0x3def02b2	0.11670436
82	0x3e00d3b3	0.12580757
83	0x3dbb2cf8	0.091394365
84	0xbd7da0de	-0.061920993
85	0xbe485c3d	-0.19566436
86	0xbdbb6628	-0.09150344
87	0x3d27d503	0.04097463
88	0xbc37b93a	-0.011213595
89	0x3e0cd133	0.13751678
90	0xbe3a0d9b	-0.18169253
91	0xbe3e5811	-0.18588282
92	0x3ece4e4c	0.4029411
93	0x3d972b0e	0.07381259
94	0x3e458454	0.1928876
95	0xbd0f4dab	-0.03498618
96	0xbe85a15c	-0.2609967
97	0xbdee5b7b	-0.11638542
98	0xbeac673d	-0.33672515
99	0x3ea2b3c7	0.31777784
100	0x3d06e971	0.03293747
101	0x3e3d08fc	0.18460459
102	0xbd4197db	-0.04726396
103	0xbe55caa6	-0.20878085
104	0x3cfaa855	0.030597845
105	0xbc2b2c59	-0.010447585
106	0x3cdd60e7	0.027023746
107	0xbe92cf69	-0.28673866
108	0x3e0af9f1	0.13571908
109	0xbe9b63e9	-0.30349663
110	0x3eed9406	0.46401995
111	0x3e139a9b	0.14414446
112	0x3edd493c	0.43219936
113	0xbd05fd78	-0.03271243
114	0x3e8b76d3	0.27239093
115	0x3e9555fb	0.2916716
116	0xbe22e911	-0.1590922
117	0xbe7c6acf	-0.24650119
118	0xbe8c0dc7	-0.2735426
119	0x3ec347dd	0.38140765
120	0x3e818722	0.2529841
121	0x3d13cb6f	0.03608268
122	0x3e1276e8	0.14303172
123	0x3e0c8b80	0.1372509
124	0xbdbdbb8f	-0.092642896
125	0xbd47b6e4	-0.048758402
126	0x3d8599c9	0.06523473
127	0xbdf8cb15	-0.1214811
128	0xbe44c37b	-0.19215195
129	0x3d7692a5	0.060198445
130	0xbe407b08	-0.18796933
131	0xbec65e43	-0.3874379
132	0x3eddeb1b	0.43343434
133	0x3ec25107	0.37952444
134	0xbe85e4ec	-0.26151216
135	0xbdb9deaa	-0.09075673
136	0xbe835d7d	-0.25657263
137	0x3eab4af1	0.33455613
138	0xbedbf895	-0.4296309
139	0xbe07241f	-0.13197373
140	0xbc827d6a	-0.015928943
141	0x3dc1d0c6	0.094636485
142	0x3e823c1c	0.25436485
143	0xbe8c4c28	-0.27401853
144	0x3bfa30a4	0.007635193
145	0x3ed15a2f	0.40889117
146	0x3e3fc06b	0.18725745
147	0xbbaa8eca	-0.00520501
148	0x3e9353ea	0.2877496
149	0x3e396d19	0.18108024
150	0xbe916246	-0.2839529
151	0xbeaf2bed	-0.342132
152	0xbc2283fa	-0.009919161
153	0xbe4a6f54	-0.19769031
154	0x3c3e6a3c	0.011622008
155	0x3db71763	0.089400075
156	0xbd15321a	-0.036424734
157	0x3eb8b8d9	0.36078528
158	0xbe3edb52	-0.18638352
159	0xbe2f0a6b	-0.17093818
160	0xbe1492e6	-0.14509162
161	0xbe71655a	-0.23573819
162	0xbeb68680	-0.3564949
163	0x3e833223	0.2562419
164	0x3ec777ba	0.38958532
165	0xbe7f84ee	-0.24953052
166	0xbed0bc32	-0.40768582
167	0xbe1cac34	-0.15300065
168	0x3e785471	0.24250962
169	0x3e508c8c	0.20366114
170	0xbde19b5f	-0.11015963
171	0x3e733904	0.23752218
172	0xbd8337dd	-0.064071395
173	0x3f020c6b	0.508002
174	0xbeb3339d	-0.35000315
175	0x3eda4cdb	0.4263676
176	0xbe34f412	-0.1767123
177	0xbed18b92	-0.40926796
178	0x3dbf9e80	0.09356403
179	0x3ec55ec6	0.3854887
180	0xbd1feff6	-0.039047204
181	0x3f7407ab	0.953242
182	0x3ecafede	0.39647573
183	0x3e5fcb7a	0.21854964
184	0x3eb39a2c	0.3507856
185	0xbf0481b9	-0.5176044
186	0x3e0eabc5	0.13932712
187	0xbe5afb29	-0.21384872
188	0xbc5718c6	-0.013128465
189	0x3df22ad7	0.11824577
190	0x3c4686a5	0.012117063
191	0xbedbacb5	-0.42905203
192	0x3ea0ad03	0.31381997
193	0x3e775488	0.2415334
194	0x3d8b4dee	0.06801973
195	0x3da81e4e	0.08208905
196	0xbddff2e9	-0.10935003
197	0x3e8b1f41	0.27172282
198	0x3ef64a4e	0.48103565
199	0x3eb9b23d	0.36268798
200	0xbeb660fb	-0.35620865
201	0xbd9f7eb8	-0.077878416
202	0x3e13b335	0.14423831
203	0xbecb4549	-0.39701298
204	0xbe05a4af	-0.13051103
205	0x3e491414	0.19636565
206	0xbe890ff6	-0.2676999
207	0x3d74c2c3	0.05975605
208	0xbed80863	-0.421939
209	0x3ec2bc14	0.38034117
210	0xbe9c9665	-0.30583492
211	0x3e0a6354	0.13514453
212	0xbe6b83f2	-0.22999552
213	0x3d138e86	0.036024593
214	0x3e934bf0	0.28768873
215	0xbeab62e0	-0.33473873
216	0xbd084eb2	-0.033278175
217	0x3b804a1f	0.003915086
218	0xbe92c780	-0.2866783
219	0xbcfb0a3c	-0.030644529
220	0xbdf1943a	-0.1179585
221	0xbce58b5d	-0.028020555
222	0xbe9204bb	-0.28519234
223	0x3e5a8758	0.21340692
224	0xbe0b77c6	-0.13619909
225	0x3e69143a	0.22761622
226	0xbec45dea	-0.383529
227	0xbbee16b1	-0.0072658886
228	0xbe708e68	-0.23491824
229	0x3e35ac1d	0.17741437
230	0x3e585b35	0.21128543
231	0xbe1545aa	-0.14577356
232	0x3e9997cd	0.29998627
233	0xbe5e6024	-0.21716362
234	0x3ea4c293	0.32179698
235	0xbe49f047	-0.19720565
236	0x3eac7121	0.3368006
237	0xbe44a165	-0.19202192
238	0x3e6edaed	0.23325701
239	0xbed4424c	-0.4145683
240	0xbe0280f2	-0.12744501
241	0x3e911121	0.2833338
242	0xbdd03589	-0.10166461
243	0xbed83324	-0.42226517
244	0xbe743176	-0.23846993
245	0x3dba1ca1	0.09087492
246	0xbecc9076	-0.39953965
247	0xbddd04d9	-0.1079194
248	0xbeb38981	-0.35065845
249	0xbdc2e1fe	-0.09515761
250	0x3eb2699e	0.34846205
251	0xbb4fc2f3	-0.0031701892
252	0x3e4d6705	0.2005883
253	0xbe064dce	-0.13115618
254	0xbe35c0c2	-0.17749313
255	0x3e931ff4	0.28735316

0.bias f4 [16]
0	0x3ea6ccbf	0.32578084
1	0xbf548c2d	-0.8302639
2	0xbe817eef	-0.25292155
3	0x3e6f8913	0.23392133
4	0x3e860048	0.2617209
5	0x3df17f11	0.11791814
6	0x3ddfcf57	0.10928219
7	0x3dd1738e	0.102271184
8	0x3af7fde6	0.0018920272
9	0x3ad203e7	0.0016022892
10	0x3e56113a	0.20905009
11	0x3f1a9646	0.6038555
12	0x3eca7602	0.39543158
13	0xbc445d07	-0.01198507
14	0x3eca432a	0.39504367
15	0x00000000	0.0

2.weight f4 [2, 16]
0	0x3ec1edd1	0.37876752
1	0xbecd221e	-0.40065092
2	0x3e8d2c2f	0.27572772
3	0xbf568c4b	-0.8380782
4	0x3f097a51	0.53702265
5	0xbc67e24e	-0.014153076
6	0x3d0e7ba7	0.034785893
7	0xbe8f8e0b	-0.28038058
8	0xbf0898c3	-0.53358096
9	0x3ebe80d8	0.37207675
10	0xbedab9f4	-0.42719996
11	0x3f0d8d87	0.5529408
12	0x3e847600	0.25871277
13	0x3d3e04cb	0.04639129
14	0x3d7fabdb	0.062419754
15	0x3f11a333	0.5688965
16	0x3d16536b	0.036700647
17	0x3c19df26	0.009391582
18	0xbe54bddc	-0.2077555
19	0xbf02fc25	-0.5116599
20	0x3f08ee34	0.5348847
21	0x3ef1af06	0.47203845
22	0x3e933291	0.28749517
23	0x3ee8c646	0.4546377
24	0x3f0cd11c	0.55006576
25	0x3bceb789	0.0063085
26	0xbf0832e8	-0.53202677
27	0xbc3f1321	-0.0116622755
28	0x3d05e937	0.032693114
29	0x3e83afd9	0.257201
30	0x3f744bb1	0.95427996
31	0x3da37fdf	0.07983374

2.bias f4 [2]
0	0x3f81bf2a	1.0136464
1	0x3df1db76	0.11809437
